ffn.pth (torch, 973648 bytes, 8 tensors)

fc1.weight f4 [256, 784]
0	0x3d06a3e1	0.03287113
1	0x3da5adff	0.08089828
2	0x3d0a2856	0.033729874
3	0x3c70aed7	0.014690123
4	0x3d73336a	0.059375204
5	0x3d304a77	0.043039765
6	0x3d06dbb5	0.032924373
7	0x3cecf5ec	0.028925858
8	0x3b8fb530	0.004385613
9	0x3d7e41f1	0.062074605
10	0x3e4ea211	0.20179011
11	0x3e4bc80f	0.19900535
12	0x3d6726fb	0.05643366
13	0xbe476c6f	-0.19474958
14	0xbea5a623	-0.32353315
15	0xbe046862	-0.12930444
16	0x3e36ba54	0.17844516
17	0x3e18ff3e	0.14941117
18	0x3d0d1fb2	0.034454055
19	0xbd4b955e	-0.049702995
20	0xbd5c4511	-0.053776804
21	0x3cb5b774	0.022182204
22	0x3d307771	0.04308266
23	0x3b015708	0.0019735713
24	0x3d7e5383	0.06209136
25	0x3cfaf0ff	0.030632494
26	0x3d4171a7	0.047227528
27	0x3d3542e4	0.044253245
28	0x3d9c84ff	0.076425545
29	0x3cab81da	0.020935941
30	0x3dad5d3e	0.0846505
31	0x3d7b0709	0.061286006
32	0x3d0288c7	0.031868722
33	0xbd050441	-0.03247476
34	0xbd5f9acb	-0.05459098
35	0x3a8898c6	0.0010421507
36	0x3dc75ed6	0.097348854
37	0x3e28d87d	0.16488834
38	0x3d25f199	0.04051361
39	0x3d85957f	0.06522655
40	0x3e28fe63	0.16503291
41	0x3d909b79	0.07060904
42	0x3d8cd81f	0.06877159
43	0x3d8f6612	0.0700189
44	0x3d49aa20	0.04923451
45	0x3d932b6e	0.07186018
46	0x3da65942	0.08122493
47	0x3de1cc86	0.11025338
48	0xbd2fd7a8	-0.042930275
49	0xbc37e86e	-0.011224849
50	0xbd0591c5	-0.03260972
51	0xbda8fc41	-0.082512386
52	0xbc87ab94	-0.016561307
53	0x3c850ff7	0.016242964
54	0x3d9131b4	0.07089558
55	0x3d7ed075	0.06221052
56	0x3c935ba1	0.017988028
57	0x3d572cb6	0.052532874
58	0x3d69ad68	0.05705014
59	0x3b40a331	0.0029394145
60	0xbcb6f09c	-0.022331528
61	0xbcf7f0e9	-0.030266242
62	0x3d963da0	0.07335973
63	0x3e1f02e6	0.1552845
64	0x3e201ee1	0.1563678
65	0x3e337a8f	0.17527221
66	0x3d8c9a37	0.06865352
67	0x3b830a75	0.0039990493
68	0xbc4a1620	-0.012334377
69	0x3df172ce	0.117894754
70	0x3e189fd0	0.14904714
71	0x3be15fbd	0.006877868
72	0xbd16ae56	-0.036787353
73	0xbcb849c4	-0.022496112
74	0x3d224f88	0.03962663
75	0x3e020a93	0.12699346
76	0x3e16f0b8	0.14740264
77	0x3da3c455	0.07996432
78	0x3cad642a	0.021165926
79	0x3c649605	0.013951783
80	0xbd5b339d	-0.05351602
81	0xbd7743c4	-0.06036736
82	0x3bb81182	0.0056173215
83	0x3cad5543	0.02115882
84	0x3d550a66	0.05201187
85	0x3b0bd1aa	0.0021334686
86	0x3d426ca7	0.0474669
87	0xbcfeb54c	-0.031092308
88	0x3d4f1ed9	0.050566528
89	0x3d925b94	0.071463734
90	0x3dd9e077	0.106385164
91	0x3e21f996	0.15817866
92	0x3e29d938	0.16586769
93	0x3dafb279	0.08578963
94	0xbaa030ba	-0.0012221553
95	0xbcacab8e	-0.021077897
96	0x3c3f7076	0.011684528
97	0x3d12a853	0.035805058
98	0x3dacebf0	0.08443439
99	0xbcea60e3	-0.028610652
100	0xbcbf1727	-0.02332647
101	0x3d09d1c9	0.033647332
102	0xbd1cb602	-0.038259514
103	0x3c7ea123	0.015541348
104	0x3e0f2c2e	0.13981697
105	0x3db5a192	0.08868708
106	0x3d910194	0.07080379
107	0x3d3d71a6	0.04625096
108	0xbd6ec5c6	-0.05829408
109	0xbda35781	-0.079756744
110	0x3d12b205	0.035814304
111	0x3d98f567	0.07468682
112	0x3d0e8183	0.03479148
113	0x3d4c3a72	0.049860425
114	0x3cd1bc23	0.025602406
115	0x3c18b28c	0.009319913
116	0x3cfcac8a	0.030843992
117	0x3d23234f	0.039828595
118	0x3da2a911	0.07942403
119	0x3debf078	0.11520475
120	0xbd10b950	-0.035332978
121	0xbdabae99	-0.08382911
122	0x3c2f3167	0.010692931
123	0xbc81c172	-0.015839312
124	0xbde0057b	-0.10938545
125	0xbd4e6f82	-0.05039931
126	0xbd884f66	-0.06655769
127	0x3d056adf	0.032572623
128	0xbdf2b38a	-0.118506506
129	0x3cb973ea	0.02263828
130	0xbb0e02d9	-0.0021669178
131	0xbda1419f	-0.07873844
132	0xbd58af37	-0.052901473
133	0x3ddeeb77	0.10884755
134	0x3d9d7782	0.0768881
135	0x3d5b5664	0.053549185
136	0x3cf6bee9	0.03012033
137	0xbd9a088d	-0.07521162
138	0x3c977482	0.018488172
139	0x3d7fc115	0.062439997
140	0x3d2b26cf	0.041785058
141	0xbc2c8685	-0.010530119
142	0x3ca52458	0.020158932
143	0x3c0d13fe	0.008610724
144	0x3d4c6f66	0.049910925
145	0x3d873445	0.066017665
146	0x3d86a3eb	0.065742336
147	0xbc233a93	-0.009962696
148	0x3d6269f2	0.05527682
149	0xbcf5c345	-0.030000338
150	0x3d220d5f	0.039563533
151	0x3d4f0559	0.05054221
152	0xbd1e7699	-0.038687322
153	0xbdc6d429	-0.09708435
154	0xbd673b12	-0.05645282
155	0xbc9c6d4d	-0.019095087
156	0xbddfa3c6	-0.10919909
157	0xbb9f90e7	-0.0048695686
158	0xbd9399de	-0.07207082
159	0xbdaae437	-0.0834431
160	0xbe0daf2b	-0.13836353
161	0xbc82cc87	-0.015966667
162	0x3d450b70	0.04810661
163	0x3d80eb12	0.06294836
164	0x3c6f6c38	0.014613204
165	0xbd15978e	-0.036521487
166	0xbd969079	-0.07351775
167	0x3c0d0a4b	0.008608411
168	0x3d766950	0.060159028
169	0xbc66f096	-0.014095446
170	0xbaaa068e	-0.0012971924
171	0x3b9a3dde	0.004707082
172	0xbc6b44dc	-0.014359679
173	0x3d72c496	0.05926951
174	0x3d016d50	0.03159839
175	0xbda550e5	-0.0807207
176	0x3d08c27b	0.033388596
177	0x3d8f3f32	0.069944754
178	0x3db76bc4	0.089561015
179	0xbd99f319	-0.0751707
180	0xbd788e13	-0.060682368
181	0xbd037378	-0.03209254
182	0xbd4cfe05	-0.05004694
183	0x3cb808a8	0.022465065
184	0xbdd48ce7	-0.103784375
185	0x3cd3ff6a	0.025878627
186	0x3d51c267	0.051210787
187	0xbc1bbc4f	-0.0095053455
188	0xbd4f56c7	-0.050619867
189	0x3b792d19	0.0038021265
190	0x3d39b1c0	0.04533553
191	0x3b0a604c	0.0021114526
192	0x3cd180cd	0.025574112
193	0xbd86eb17	-0.065878086
194	0xbcd8e995	-0.026478568
195	0xbc8282dd	-0.015931541
196	0xbaf18e52	-0.0018429256
197	0x3cdea680	0.027179003
198	0xbb869a58	-0.0041077547
199	0x3bfa1a8a	0.0076325582
200	0xbd11dfcb	-0.035613816
201	0x3bb24eff	0.005441546
202	0xbcc5f805	-0.024166116
203	0xbca49208	-0.020089164
204	0xbcd1cd3c	-0.025610559
205	0x3d347251	0.044054333
206	0x3cd14fe6	0.025550794
207	0xbc415cfd	-0.011801955
208	0xbd922eb8	-0.07137817
209	0xbd12efdc	-0.03587328
210	0x3c8b7886	0.017025243
211	0x3cb4e0c2	0.02207983
212	0x3c8f7347	0.017511023
213	0xbcdf2d21	-0.027243199
214	0xbd22de59	-0.03976283
215	0xbbb54860	-0.0055323094
216	0xbd1aef39	-0.037825797
217	0xbc7a8b35	-0.015291979
218	0x3b8178cd	0.003951168
219	0xbd1dc584	-0.038518444
220	0xbc17ac3e	-0.009257374
221	0xbcabad95	-0.020956794
222	0xbd36f6e8	-0.044669062
223	0xbb9039bb	-0.0044014133
224	0x3c34bb2e	0.011030955
225	0x3cde6882	0.027149443
226	0x3bc087b2	0.005875551
227	0x3cd70575	0.02624772
228	0x3cf1c2d7	0.029511852
229	0xbd3b263f	-0.04569077
230	0xbdbe298f	-0.092852704
231	0xbd56d17f	-0.052445885
232	0xbbd93b27	-0.006629366
233	0xbc847f6a	-0.016174037
234	0xbd100089	-0.03515676
235	0x3b0033b2	0.0019562063
236	0xbd5d1784	-0.053977504
237	0x3b6d947f	0.003625184
238	0xbc736092	-0.014854567
239	0x3d4b44de	0.049626224
240	0xbd08e19d	-0.033418287
241	0xbd05465a	-0.032537796
242	0xbd8452aa	-0.064610794
243	0xbc48598a	-0.012228379
244	0x3cae3ad8	0.021268293
245	0xbd36c6db	-0.044623237
246	0xb9b7b114	-0.00035036413
247	0xbe31b0db	-0.17352621
248	0xbdcda007	-0.100402884
249	0xbd20ceb0	-0.039259613
250	0xbd1ec774	-0.038764432
251	0x3d6c69e4	0.057718173
252	0x3c3afe05	0.011413102
253	0xbcea46c8	-0.028598204
254	0x3cb27266	0.021783065
255	0x3c917111	0.01775411

fc1.bias f4 [256]
0	0xbd332395	-0.043735106
1	0x3d1e7a1b	0.038690668
2	0xbc889fa9	-0.016677694
3	0xbbe1f5bf	-0.0068957503
4	0xbc430448	-0.011902876
5	0xbd1745b4	-0.03693171
6	0xbbd4c0a4	-0.006492691
7	0xbdac7300	-0.08420372
8	0xbd69fe3d	-0.057127226
9	0x3d7fd809	0.062461887
10	0xbe0590ab	-0.13043468
11	0xbd3d1c89	-0.04616979
12	0xbd4d5900	-0.050133705
13	0x3a4aaf80	0.000773184
14	0xbc87d878	-0.016582713
15	0xbd1ec8e5	-0.038765807
16	0xbd40617e	-0.046967976
17	0xbd57ba0c	-0.052667663
18	0xbcbc6ee7	-0.023002101
19	0x3c914765	0.017734239
20	0xbc70997e	-0.014685033
21	0x3c632cb4	0.0138656385
22	0xbd6ddb14	-0.058070257
23	0xbc8aee12	-0.016959224
24	0x3c88f172	0.016716693
25	0xbccff250	-0.025384098
26	0x3b0f2ea9	0.002184788
27	0xbd9fb111	-0.077974446
28	0xbc8a6d07	-0.016897691
29	0x3c136d32	0.008998202
30	0xbda1c3e0	-0.07898688
31	0xbc3c1240	-0.0114789605
32	0xbd8c97e9	-0.06864912
33	0x3ca50396	0.020143311
34	0xbcc830aa	-0.024437267
35	0x3bd2576f	0.0064191143
36	0xbd246565	-0.04013576
37	0xbc5d69c8	-0.01351399
38	0x3bce6153	0.006298223
39	0xbb7d2647	-0.0038627551
40	0xbd553847	-0.052055623
41	0xbd5ad9ad	-0.053430248
42	0xbd2aa499	-0.04166088
43	0xbc39da57	-0.01134356
44	0xbc9ad348	-0.018899575
45	0xbd1334ba	-0.035938956
46	0xbce544a0	-0.027986825
47	0xbb80d99e	-0.003932192
48	0xbd8a3c36	-0.067497656
49	0x3d828abc	0.06374118
50	0xbd3ac123	-0.045594346
51	0xbb8bf853	-0.004271546
52	0xbc03c21c	-0.008041885
53	0x3bdc0160	0.006714031
54	0xbd2aabbc	-0.041667685
55	0xbce39d2c	-0.027784906
56	0x3afc7dc2	0.0019263553
57	0xbbb0fdda	-0.005401355
58	0xbc48d8e0	-0.012258738
59	0x3ccd982f	0.02509698
60	0xbb775b67	-0.003774369
61	0xbcc06c81	-0.023489239
62	0xbc92556c	-0.017862998
63	0xbd498f56	-0.04920896
64	0xbcc843e1	-0.02444643
65	0xbcfbbe24	-0.030730315
66	0xbd882f0e	-0.066496
67	0x3c9565cf	0.018237023
68	0xbd76ad3c	-0.060223803
69	0xbcbc85e5	-0.023013065
70	0xbca6a606	-0.020342838
71	0x3d03738e	0.032092623
72	0xbda0127d	-0.07816026
73	0xbd7c1996	-0.06154784
74	0xbd7b3d91	-0.06133801
75	0xbc9c12ae	-0.019051876
76	0x3d7222ea	0.059115328
77	0x3c7c01f4	0.015381325
78	0xbd2a469b	-0.04157124
79	0xbd4148aa	-0.04718844
80	0xbd124c56	-0.03571733
81	0x3cdb3f75	0.026763657
82	0xbca65395	-0.020303527
83	0xbd2ea7c8	-0.042640477
84	0xbcb774e7	-0.02239461
85	0xbd02db18	-0.031947225
86	0xbd70d2b1	-0.05879468
87	0xbdcef158	-0.101046264
88	0xbcc5008b	-0.02404811
89	0xbd8013fe	-0.06253813
90	0xbd0c9333	-0.034320068
91	0xbcaa6b3e	-0.02080309
92	0xbdc71ac8	-0.09721905
93	0xbb3a145e	-0.0028393487
94	0xbcac5df4	-0.021040894
95	0xbd0c6eac	-0.034285232
96	0xbc8e7602	-0.017390255
97	0xbc0f7ae6	-0.008757329
98	0xbdcd20fe	-0.100160584
99	0xbd7e07a5	-0.06201901
100	0xbd4d0b4a	-0.050059594
101	0xbce2c8f5	-0.027683714
102	0x3d07af96	0.033126436
103	0xbd8ce8b6	-0.068803236
104	0xbcfe5c5a	-0.031049896
105	0xbd774a1c	-0.06037341
106	0xbd121c71	-0.035671655
107	0xbd66a2ac	-0.05630748
108	0x3c56514a	0.013080904
109	0xbd2f624f	-0.042818364
110	0xbd0b1501	-0.033955578
111	0xbd933983	-0.07188704
112	0xbda253da	-0.0792615
113	0xbd433423	-0.047657143
114	0x3cd9d6c8	0.026591673
115	0xbd348ed6	-0.04408153
116	0xbd499297	-0.049212065
117	0xbcd0242e	-0.025407877
118	0x3a9d8028	0.0012016343
119	0x3c23a3a1	0.009987743
120	0xbda96bc4	-0.08272508
121	0xbd779fa3	-0.060454976
122	0xbd828df8	-0.06374735
123	0x3ce519aa	0.02796634
124	0x3d0a6348	0.03378609
125	0xbd5d5643	-0.054037344
126	0xbd8d6612	-0.06904234
127	0xbd876ee6	-0.06612949
128	0xbaa27cbb	-0.0012396792
129	0xbc7f12bc	-0.0155684315
130	0xbd60ac72	-0.054851957
131	0x3b7fd3a6	0.0039036064
132	0xbdbd7abc	-0.09251925
133	0x3b3f4748	0.0029186774
134	0xbbf83cf8	-0.0075756274
135	0xbd860d9f	-0.06545567
136	0xbd5031c9	-0.05082873
137	0xbc2eb8b2	-0.010664152
138	0x3c68465a	0.014176929
139	0xbd319f63	-0.043364894
140	0xbc2683fc	-0.010163303
141	0xbda1e2fa	-0.079046205
142	0xbc50c45a	-0.012742126
143	0xbbd8a854	-0.006611863
144	0xbdf433c3	-0.11923935
145	0xbd5069b5	-0.05088206
146	0xbd48cb36	-0.049021922
147	0x3c8e7af0	0.017392606
148	0xbbf71490	-0.007540293
149	0x3c840d67	0.016119672
150	0xbd5b20a0	-0.05349791
151	0x3c2a5342	0.010395827
152	0xbcd43c4c	-0.025907658
153	0xbc9a2988	-0.018818632
154	0xbc5a7d4d	-0.013335538
155	0x3d7248e1	0.059151534
156	0xbd278aaf	-0.040903743
157	0xbcdee8cb	-0.027210614
158	0x3db69bec	0.089164585
159	0xbcd995d3	-0.0265607
160	0x3d79e05d	0.061004985
161	0xbd067c6e	-0.03283351
162	0x3cf0068c	0.029299997
163	0xbd52735a	-0.05137954
164	0x3d84b448	0.064796984
165	0xbca8b668	-0.02059479
166	0xbc75b292	-0.014996188
167	0x3c654c83	0.013995293
168	0xbcebcb85	-0.02878357
169	0xbceb7cee	-0.028746095
170	0x3c41517d	0.0117992135
171	0xbc059b64	-0.008154724
172	0xbc066a54	-0.008204062
173	0xbc821a49	-0.015881674
174	0xbd38e55e	-0.045140617
175	0xbc71ab7f	-0.0147503605
176	0x374cb7c0	1.220213e-05
177	0xbdcb2fe7	-0.09921246
178	0xbbf9fa35	-0.007628704
179	0xbc4b6094	-0.012413163
180	0x3c722021	0.014778168
181	0xbce244d1	-0.027620705
182	0xbd84e242	-0.06488468
183	0xbd36200b	-0.044464152
184	0xbd667cfb	-0.056271534
185	0xbcb47f19	-0.022033261
186	0x3ca857f4	0.020549752
187	0x3c942179	0.018082367
188	0xbd3eaba6	-0.046550415
189	0x3c797ee4	0.015228007
190	0xbcb70ea7	-0.022345854
191	0xbcdd7619	-0.027033852
192	0xbd5f431e	-0.054507367
193	0xbd675850	-0.056480706
194	0xbcab4c7d	-0.020910496
195	0xbc80e37a	-0.01573347
196	0xbd825a61	-0.06364895
197	0xbc7df03c	-0.015499171
198	0xbd5f13f4	-0.05446239
199	0xbd1c25ee	-0.03812211
200	0x3be41f9c	0.006961776
201	0xbc9c905b	-0.019111803
202	0xbc73222b	-0.014839689
203	0xbc1c5ff4	-0.009544361
204	0x3d8c98cf	0.068650834
205	0xbd45288d	-0.048134375
206	0xbc9ef2e0	-0.019402921
207	0xbd1fc109	-0.039002452
208	0xbd5f549e	-0.054524057
209	0xbcfd62e2	-0.03093094
210	0xbd14bf6d	-0.03631537
211	0xbd49bfad	-0.049255062
212	0xbdc2f6e7	-0.09519749
213	0xbd0a4e80	-0.03376627
214	0xbcbaa43f	-0.022783397
215	0xbd3aed54	-0.04563649
216	0xbd84a7b2	-0.06477298
217	0xbd8d899f	-0.06911015
218	0xbaa9c27c	-0.0012951638
219	0xbd2682ae	-0.04065197
220	0xbb079881	-0.0020690265
221	0xbc252acc	-0.010081004
222	0x3c5b7f6e	0.013397081
223	0x3e0e8138	0.1391648
224	0xbda09103	-0.07840159
225	0x3b545494	0.0032399045
226	0xbd4e0469	-0.050297175
227	0x3b712b03	0.0036799319
228	0xbbf05278	-0.00733405
229	0xbd40d46a	-0.047077574
230	0xbd7099c0	-0.058740377
231	0xbcb185ff	-0.02167034
232	0xbcfa6c85	-0.030569324
233	0xbd24efa7	-0.040267613
234	0xbc847eef	-0.016173808
235	0x3c940ab5	0.018071512
236	0x3c87e3e4	0.016588159
237	0xbd5d9832	-0.054100223
238	0x3c056456	0.008141598
239	0x3bb1d748	0.005427275
240	0xbd8507a4	-0.06495598
241	0x3c0c6c4f	0.008570745
242	0xbcdcd74d	-0.026958132
243	0x3a75f49e	0.0009382459
244	0x3c095f4e	0.008384539
245	0x3cf7fdc8	0.03027238
246	0xbcbd6338	-0.0231186
247	0xbc163ece	-0.009170247
248	0xbcb6665b	-0.022265604
249	0xbdd04cb5	-0.10170881
250	0xbca80edf	-0.020514904
251	0xbd8e62ef	-0.06952464
252	0xbd1b3376	-0.037890874
253	0xbd53a7b7	-0.051673617
254	0x3c57ad35	0.013163854
255	0xbd97e55a	-0.07416792

fc2.weight f4 [128, 256]
0	0xbce3a649	-0.027789252
1	0xbd0a6eec	-0.03379719
2	0x3b83af8e	0.0040187305
3	0xbd6504c5	-0.05591275
4	0xbcab30c5	-0.020897279
5	0xbde22937	-0.11043017
6	0xbe2ac15f	-0.16675328
7	0xbd4c2b66	-0.049846075
8	0xbd7807c9	-0.0605543
9	0xbd34b005	-0.044113178
10	0x3d645ed4	0.055754498
11	0x3de05a6b	0.10954746
12	0xbdf2d8c6	-0.118577525
13	0x3dce2141	0.100649364
14	0x3cf2d948	0.029644623
15	0x3d063e57	0.032774296
16	0x3db3b458	0.08774632
17	0xbe567ad3	-0.20945291
18	0xbd942b7e	-0.07234858
19	0xbbbe6507	-0.0058103832
20	0xba70aaad	-0.0009180706
21	0xbdb945c3	-0.09046509
22	0x3e57cafa	0.21073523
23	0xbd2644a9	-0.040592823
24	0xbd9024e9	-0.0703829
25	0x3e989814	0.29803526
26	0xbdce0071	-0.10058678
27	0xba75562b	-0.00093588483
28	0x3cd88c2d	0.026434029
29	0x3d8aaf0a	0.06771667
30	0xbda3a275	-0.079899706
31	0x3d38a7db	0.045081954
32	0x3cc4d7d4	0.024028696
33	0xbdf0cf1e	-0.117582545
34	0x3d88af21	0.06674028
35	0xbe7dd75e	-0.24789187
36	0xbd150047	-0.036377218
37	0x3d5ed028	0.054397732
38	0xbdcf9da0	-0.101374865
39	0x3d834d83	0.064112686
40	0xbbe3fd2b	-0.00695767
41	0x3d89e518	0.06733149
42	0xbe410b35	-0.18851931
43	0x3d0448cd	0.03229599
44	0x3c869c8b	0.016432067
45	0xbe691a5b	-0.2276396
46	0x3b357a7a	0.002769141
47	0xbe37cb13	-0.1794856
48	0x3d9c6899	0.07637138
49	0xbd9363f7	-0.07196801
50	0xbe7f0717	-0.24905048
51	0xbe0adf90	-0.13561845
52	0x3dbe1850	0.09281981
53	0xbe4a3bba	-0.19749346
54	0xbc800cd8	-0.015631124
55	0xbc420228	-0.011841334
56	0xbd1dcecc	-0.038527295
57	0xba72f431	-0.0009267955
58	0xbc8d0a9b	-0.017216971
59	0xbe01fa8f	-0.12693237
60	0xbd73294c	-0.059365556
61	0xbdc7a3d1	-0.097480424
62	0xbdae5d2f	-0.08513867
63	0x3cbfe812	0.02342609
64	0x3e055e93	0.13024358
65	0xbd763bb2	-0.060115524
66	0xbd27c713	-0.040961336
67	0xbcf12928	-0.02943857
68	0x3cf5ff75	0.030029038
69	0xbe20998a	-0.1568357
70	0xbe40bc96	-0.1882194
71	0x3e41be9e	0.18920371
72	0xbc7791d7	-0.0151104545
73	0xbd92a397	-0.071601085
74	0x3d9c046a	0.076180294
75	0xbef6ba95	-0.48189226
76	0xbe25f3c7	-0.16206275
77	0xbce43d9c	-0.027861409
78	0xbce04dd0	-0.027380854
79	0xbce64998	-0.028111264
80	0x3d487e28	0.048948437
81	0xbe2514fd	-0.16121288
82	0xbe2270fd	-0.15863414
83	0x3e0d638f	0.1380751
84	0x3d2069ff	0.039163586
85	0x3c3e21b7	0.011604718
86	0xbd74b282	-0.05974055
87	0x3dccd9aa	0.100024536
88	0xbdc37750	-0.095442414
89	0x3d9c801f	0.07641625
90	0x3d5fbe12	0.054624625
91	0x3cecaa83	0.0288899
92	0x3e16cd29	0.147267
93	0xbe280090	-0.16406465
94	0xbdff76f6	-0.12473862
95	0xbdcbe291	-0.099553235
96	0x3dfec17a	0.124392465
97	0x3d888e37	0.0666775
98	0x3c98044a	0.018556733
99	0xbdb6803e	-0.08911179
100	0x3d1eb7c2	0.038749464
101	0xbd6b6ad1	-0.057474915
102	0x3d394a25	0.045236725
103	0x3db4fa01	0.08836747
104	0x3d12b056	0.0358127
105	0xbda8135f	-0.0820682
106	0x3d6b36e7	0.057425406
107	0xbd4d3728	-0.05010143
108	0x3dd18a5f	0.1023147
109	0xbe6bd5ee	-0.23030826
110	0xbdcc6647	-0.09980445
111	0x3d9a5e8e	0.07537566
112	0x3d187c19	0.037227724
113	0xbd5bdd6e	-0.05367797
114	0xbd5357de	-0.05159747
115	0xbbe7a18f	-0.00706882
116	0x3e29a999	0.16568603
117	0x3d866a1f	0.0656321
118	0x3cf35105	0.029701719
119	0x3d0019f3	0.031274747
120	0x3cff790a	0.031185646
121	0x3df5cb5b	0.120016776
122	0xbd7eeaff	-0.06223583
123	0x3b347950	0.0027538128
124	0xbe613c90	-0.21995759
125	0x3dbb5430	0.09146917
126	0x3d69d01d	0.057083238
127	0x3d7a48c5	0.061104555
128	0x3d11be4b	0.03558187
129	0xbc23ef83	-0.0100058345
130	0x3b6cda4d	0.003614086
131	0xbd0f6d3e	-0.03501629
132	0xbdd94f5e	-0.10610841
133	0xbe0e8f9a	-0.13921967
134	0xbe4b0eff	-0.1982994
135	0x3d17bea5	0.037047047
136	0x3d01bcae	0.03167408
137	0x3c85c20b	0.016327878
138	0xbe2c9161	-0.16852333
139	0xbd8e5f69	-0.06951792
140	0xbc7642ad	-0.015030545
141	0x3d21360c	0.039358184
142	0x3d52091d	0.051278222
143	0xbd1bbbf3	-0.03802104
144	0x3e180d76	0.14848885
145	0x3dbe864f	0.09302961
146	0xbe270832	-0.1631172
147	0x3ce919c1	0.028454663
148	0xbcf35ebf	-0.029708264
149	0xbe2d2107	-0.1690713
150	0x3e7be2d7	0.24598251
151	0x3e80c638	0.2515123
152	0x3da713ae	0.081580505
153	0x3d6d3a26	0.057916783
154	0x3b44f9e0	0.0030056164
155	0xbd67853c	-0.056523547
156	0x3d6ee0c8	0.058319837
157	0xbc8230a9	-0.015892344
158	0x3d8bdff5	0.06829826
159	0xbe2cb339	-0.16865243
160	0x3d740a26	0.05957999
161	0xbd7df7b5	-0.06200381
162	0x3d846fd9	0.06466646
163	0xbe1bfb1e	-0.15232512
164	0xbe7e7ed7	-0.24853073
165	0xbd482e38	-0.048872203
166	0xbeb7f187	-0.35926458
167	0x3d7c163b	0.061544638
168	0x3dcd1266	0.10013275
169	0xbe40ede1	-0.18840744
170	0xbdfdeb21	-0.12398363
171	0x3d84aa9d	0.064778544
172	0x3e301492	0.17195347
173	0xbcab7a36	-0.020932298
174	0xbea745d2	-0.32670456
175	0x3d5aa0a4	0.053375855
176	0x3ce8a43e	0.02839863
177	0x3d994b8e	0.07485114
178	0xbe1d6f6d	-0.15374537
179	0xbc2ec7ef	-0.010667785
180	0x3d4005da	0.04688058
181	0xbda50b22	-0.08058764
182	0xbd60971b	-0.054831605
183	0xbe41821f	-0.18897294
184	0xbd9d36af	-0.07676446
185	0xbd4f85b5	-0.050664622
186	0xbcf39b25	-0.029737065
187	0x3d21167f	0.039328095
188	0x3e0cff0d	0.13769169
189	0xbdd355bc	-0.10319087
190	0xbdbde187	-0.092715316
191	0x3c9e54f0	0.01932761
192	0x3e11696f	0.14200376
193	0x3de69d5f	0.11260485
194	0x3c488ef5	0.012241115
195	0xbd52f2c2	-0.051501043
196	0xbc0ccbc1	-0.008593501
197	0x3d60c6d3	0.054877114
198	0x3e2cd578	0.16878307
199	0xbe4a3aa0	-0.19748926
200	0xbcc9b7ea	-0.02462383
201	0xbd47a88f	-0.048744734
202	0xbd7d4af8	-0.061839074
203	0x3c0794d3	0.008275229
204	0xbe58db31	-0.21177365
205	0xbd963ccc	-0.07335815
206	0xbdc921da	-0.0982091
207	0xbe3f16cf	-0.18661045
208	0x3cddb092	0.027061734
209	0xbe034994	-0.12821037
210	0xbdd1de8a	-0.10247524
211	0xbd8f2054	-0.06988588
212	0x3dc6b080	0.097016335
213	0x3d496ed1	0.04917795
214	0x3dbf6291	0.09344972
215	0xbdec7cd7	-0.11547249
216	0xbc5f4607	-0.013627536
217	0xbd0c27c9	-0.03421763
218	0xbe49964a	-0.19686237
219	0x3b110604	0.002212883
220	0x3d71ee46	0.059065126
221	0xbe055383	-0.13020138
222	0x3d960b31	0.07326353
223	0x3dda83cc	0.106696695
224	0xbe0ca609	-0.13735212
225	0xbe565c33	-0.20933609
226	0x3b4243a1	0.002964236
227	0x3d082a5f	0.033243533
228	0xbc96811f	-0.018372117
229	0xbde2813b	-0.11059805
230	0x3d45f821	0.048332337
231	0xbddee984	-0.10884383
232	0xbdcd6f13	-0.10030951
233	0xbd11701b	-0.035507303
234	0xba1eacb6	-0.00060529576
235	0x3d5c9d71	0.053861085
236	0xbd30b7cd	-0.043144036
237	0x3dbc8414	0.092048794
238	0xbd171fb2	-0.03689546
239	0xbe680497	-0.22658001
240	0x3dd914f2	0.10599698
241	0xbd6d8035	-0.057983596
242	0x3d707960	0.058709502
243	0x3c0d021f	0.008606463
244	0xbe79df59	-0.24401607
245	0xbd295743	-0.041342985
246	0x3c0f25c8	0.008737035
247	0x3b557568	0.00325712
248	0xbe5c2efd	-0.215023
249	0x3bef0aec	0.007295003
250	0x3c12d71e	0.008962421
251	0xbc323923	-0.01087788
252	0x3dbee062	0.093201414
253	0x3d86a01a	0.06573506
254	0xbdf48fa7	-0.11941462
255	0x3dde23a0	0.10846639

fc2.bias f4 [128]
0	0x3d1cd171	0.038285676
1	0xbb8ba388	-0.004261438
2	0xbd567778	-0.052360028
3	0xbdc70208	-0.09717184
4	0xbd069a0d	-0.032861758
5	0xbe37735c	-0.179151
6	0x3d4491c6	0.047990583
7	0xbd7d9124	-0.061905995
8	0xbe0b053e	-0.13576218
9	0xbbe36deb	-0.0069405935
10	0x3dbc4574	0.09192935
11	0x3c48ead7	0.012263021
12	0x3cd3e9c2	0.0258683
13	0xbd8575e0	-0.065166235
14	0x3e25c109	0.16186918
15	0xbd0cd4b2	-0.03438253
16	0xbd4eb903	-0.05046941
17	0xb90b6551	-0.00013293816
18	0xbdead05b	-0.11465522
19	0xbdbfaa91	-0.09358705
20	0x3d5ce148	0.053925782
21	0x3de6d2d7	0.11270683
22	0x3c80e89d	0.015735919
23	0x3c0c9410	0.008580223
24	0xbdbc0376	-0.091803476
25	0xbc8729c6	-0.016499411
26	0x3afebee7	0.0019435555
27	0x3dfb804c	0.1228033
28	0xbd57502a	-0.052566685
29	0xbd5f3a2a	-0.05449883
30	0x3c97dbae	0.018537369
31	0x3d81d789	0.06339938
32	0x3c82eb16	0.015981238
33	0x3c8ea61e	0.017413195
34	0x3d30dd26	0.043179654
35	0x3d131bcd	0.035915185
36	0x3df2d2fb	0.118566476
37	0xbd57abb4	-0.052653983
38	0xbd91c6c9	-0.071179934
39	0x3c834957	0.016026182
40	0xbdf94d44	-0.121729404
41	0x3d3e0b53	0.04639752
42	0x3e1182f7	0.14210115
43	0xbdf89ae9	-0.12138922
44	0x3e613469	0.21992649
45	0x3d84e624	0.06489208
46	0x3d2de14a	0.04245118
47	0x3cc8d323	0.02451474
48	0x3d913d3b	0.07091757
49	0x3e20b80f	0.15695213
50	0x3e1cf372	0.15327242
51	0x3c884726	0.016635489
52	0x3d75885d	0.0599445
53	0x3d80110d	0.06253252
54	0x3d355d55	0.04427846
55	0xbcc1203c	-0.02357494
56	0x3d162f8e	0.036666445
57	0x3c45799d	0.012052921
58	0x3dafb2e1	0.0857904
59	0xbda083de	-0.07837652
60	0x3dae206d	0.085022785
61	0xbbccec1d	-0.006253733
62	0xba910122	-0.001106296
63	0x3de2f4c3	0.11081841
64	0xbb3977d2	-0.0028300178
65	0xbd5375fe	-0.051626198
66	0xbda952f8	-0.08267778
67	0xbc189da8	-0.009314932
68	0x3dc38b39	0.09548039
69	0xbdf588d1	-0.11988986
70	0x3c942837	0.018085582
71	0x3e50ea8f	0.20401977
72	0x3e705b63	0.23472361
73	0xbd8ac4fb	-0.06775852
74	0x3d483212	0.048875876
75	0x3d30fad9	0.043207977
76	0x3d162030	0.03665179
77	0x3c009870	0.007848844
78	0x3dca0f44	0.09866193
79	0x3c8e3c52	0.017362747
80	0x3e14cef5	0.14532073
81	0xbd4cbdfc	-0.04998587
82	0xbde8f3df	-0.1137464
83	0xb9bba7d2	-0.00035792455
84	0xbdfdf6f5	-0.12400619
85	0x3e281c6a	0.16417089
86	0x3deb5a75	0.11491863
87	0xbd4bf717	-0.04979619
88	0x3c89cc24	0.016820975
89	0xbc146fbd	-0.009059844
90	0xbd734140	-0.0593884
91	0x3e1838f3	0.14865474
92	0xbdd0bd0a	-0.10192306
93	0x3d96a726	0.073561
94	0xbc54444d	-0.012955737
95	0xbdaa6b1d	-0.083212115
96	0x3e0451f1	0.12921883
97	0xbcf976e3	-0.030452197
98	0xbddc0327	-0.10742789
99	0x3be053a2	0.0068459073
100	0x3dd97717	0.10618418
101	0xbe001c8e	-0.12510893
102	0x3c00ce6e	0.007861717
103	0xbbaf3e98	-0.005348038
104	0xbe29d47c	-0.16584963
105	0xbbaba7c6	-0.005238506
106	0xbde4d3cf	-0.11173212
107	0x394b6680	0.00019397773
108	0xbd16df76	-0.036834203
109	0xbce63e13	-0.028105771
110	0xbda2c27a	-0.0794725
111	0xbdf0f0c9	-0.11764676
112	0xbd176320	-0.036959767
113	0xbc7c7b9c	-0.01541033
114	0xbdb47861	-0.08812023
115	0x3e02a2c8	0.12757409
116	0x3cc71f4c	0.024306916
117	0xbba91193	-0.0051595657
118	0x3d6b6424	0.05746855
119	0xbdd5fee6	-0.10449009
120	0x3c97dc91	0.018537791
121	0x3df13ff0	0.11779773
122	0x3e0baf12	0.13641003
123	0xbdbfdc73	-0.09368219
124	0x3e217001	0.15765382
125	0x3dc77131	0.097383864
126	0xba9fb11a	-0.0012183518
127	0x3da89784	0.08232024

fc3.weight f4 [64, 128]
0	0x3dc7e78c	0.09760961
1	0xbc8a24b7	-0.01686321
2	0xbdbb6459	-0.09149999
3	0xbd92c5b7	-0.07166617
4	0xbd75ad84	-0.05997993
5	0xbc2d9aab	-0.010595958
6	0xbcbe163d	-0.023203963
7	0xbde4a4bf	-0.11164235
8	0x3c823ff5	0.015899638
9	0xbdef574c	-0.116865724
10	0x3e10824e	0.14112207
11	0x3e041ceb	0.12901656
12	0xbdc6bb2f	-0.09703671
13	0x3de4ba86	0.11168389
14	0x3de9e49e	0.114205584
15	0x3d0d86f6	0.034552537
16	0xbdd20394	-0.10254589
17	0x3dceb89c	0.10093805
18	0xbc1c4d75	-0.009539952
19	0x3c443cdd	0.011977402
20	0x3d6ca011	0.05776984
21	0xbbbf59c2	-0.0058395574
22	0x3e7d50ba	0.24737826
23	0xbe19551d	-0.14973874
24	0xbd390d57	-0.045178737
25	0xbdd67ab2	-0.10472621
26	0x3e252b6e	0.16129848
27	0x3d6ef603	0.058340084
28	0xbe4e5394	-0.2014907
29	0x3d7e8800	0.06214142
30	0xbd80963c	-0.06278655
31	0x3df10669	0.11768801
32	0xbd556b30	-0.052104175
33	0xbde96685	-0.11396507
34	0x3e30299a	0.1720337
35	0x3daedc86	0.08538155
36	0x3dc7ce95	0.09756199
37	0x3cbd56e9	0.023112731
38	0x3e14485f	0.14480732
39	0x3cae10b1	0.021248193
40	0x3d15c89f	0.03656828
41	0xbd2d792d	-0.04235189
42	0xbe3ee96e	-0.18643734
43	0x3d60530f	0.05476671
44	0x3e035e47	0.12828933
45	0x3dab2f65	0.08358649
46	0xbde802cd	-0.11328659
47	0xbdae87de	-0.08522008
48	0x3c6109e1	0.0137352655
49	0x3e1a393b	0.15060894
50	0x3e10e0f8	0.14148319
51	0x3e0fbc9a	0.1403679
52	0xbd485a80	-0.048914433
53	0x3ddef418	0.10886401
54	0x3d8650aa	0.06558354
55	0xbc16da8c	-0.009207379
56	0x3da58cdd	0.08083508
57	0x3e05e3ff	0.13075255
58	0x3e33e74f	0.17568706
59	0xbde88a8a	-0.11354549
60	0x3d35312b	0.044236343
61	0x3dadb5cf	0.08481943
62	0xbd164dd3	-0.036695313
63	0x3d0f7bcc	0.03503017
64	0xbdbd22c5	-0.092351474
65	0x3d865c56	0.065605804
66	0xbbcd30ab	-0.006261905
67	0x3d526070	0.0513615
68	0x3ae99ad6	0.0017822634
69	0xbdab2a3d	-0.08357666
70	0xbd7413c7	-0.059589174
71	0xbda0edfc	-0.07857892
72	0x3de0f776	0.109846994
73	0x3c5bdde2	0.0134196
74	0xbe12a632	-0.14321211
75	0xbb6f1c30	-0.0036485307
76	0x3e0eba0f	0.13938163
77	0x3daf7abb	0.08568331
78	0xbc265553	-0.010152179
79	0xbd94c22e	-0.07263599
80	0x3de4992b	0.11162027
81	0xbc531c4b	-0.012885164
82	0xbe29f60d	-0.16597767
83	0x3d7fbbdc	0.062435016
84	0x3cf6eb8e	0.030141618
85	0x3d87472e	0.06605373
86	0x3de68757	0.11256283
87	0xbd7127bf	-0.058875795
88	0xbe0c9729	-0.13729538
89	0xbd6068c8	-0.054787427
90	0xbd4d9a5b	-0.050196033
91	0xbd3977a1	-0.045280103
92	0xbd853d0e	-0.06505786
93	0x3d9d2ce6	0.07674579
94	0x3d8975f2	0.067119494
95	0xbe837719	-0.25676802
96	0x3c1b6dd7	0.009486637
97	0x3dce7cda	0.10082407
98	0xbccfa5cf	-0.025347618
99	0x3e3c4d8b	0.18388955
100	0x3e4a5876	0.19760308
101	0x3d1e19f7	0.03859898
102	0xbd97ca4a	-0.074116305
103	0x3dce7462	0.10080792
104	0xbcabcff2	-0.02097318
105	0xbd6f5dbd	-0.058439005
106	0xbc6140cd	-0.01374836
107	0x3c22137b	0.00989234
108	0xbdbf3c07	-0.09337621
109	0xbe32490d	-0.17410679
110	0xbe32c2c8	-0.17457116
111	0xbe29a2d7	-0.16566025
112	0xbcc3cf82	-0.023902658
113	0xbd645f73	-0.05575509
114	0xbe099215	-0.13434632
115	0xbd665a01	-0.05623818
116	0x3ccbd6f6	0.024882775
117	0xbe3e87f2	-0.18606547
118	0x3e05e93c	0.13077253
119	0xbdbba340	-0.09161997
120	0xbd336c9f	-0.04380476
121	0x3cd5dc80	0.02610612
122	0xbcd63a2b	-0.026150784
123	0xbd0fe2dc	-0.03512846
124	0xbd839a1e	-0.0642588
125	0x3e0dfef5	0.1386679
126	0x3d0789aa	0.03309027
127	0xbca128ae	-0.019672718
128	0xbe4e84ac	-0.20167798
129	0x3e06bd0f	0.13158058
130	0xbe2d2ab2	-0.16910818
131	0xbe7e568d	-0.24837704
132	0xbd3cdb00	-0.046107292
133	0x3d8cd555	0.06876627
134	0x3e29db55	0.16587575
135	0xbbde7601	-0.0067889695
136	0xbd64e02a	-0.055877842
137	0x3e62e5e7	0.22158013
138	0x3d86f92c	0.065904945
139	0x3d04b3f7	0.03239819
140	0xbe3a9c58	-0.18223703
141	0xbe25aaa8	-0.16178381
142	0x3df1d8f0	0.11808956
143	0xbd1c3fef	-0.03814691
144	0xbe6ba580	-0.23012352
145	0x3d5b5f14	0.05355747
146	0x3d70dc48	0.058803827
147	0x3bcf6cd8	0.006330114
148	0xbcefc1b8	-0.029267177
149	0xbb203826	-0.002444753
150	0xbe53b152	-0.20673111
151	0xbe30965c	-0.17244858
152	0x3c8557d5	0.016277233
153	0xbdd664cf	-0.104684465
154	0xbe32d625	-0.17464502
155	0xbc458138	-0.012054734
156	0x3e6f8c47	0.23393355
157	0xbe9a9414	-0.301911
158	0x3dee2ce8	0.11629659
159	0x3e12124a	0.14264789
160	0x3dd91f51	0.10601676
161	0x3d8edb6b	0.069754444
162	0xbdaca370	-0.08429611
163	0x3c25860c	0.01010276
164	0x3e10d94a	0.14145389
165	0xbd36f3b1	-0.044665996
166	0x3d41841f	0.04724514
167	0xbcb9a9e5	-0.02266402
168	0xbd72ee3d	-0.059309233
169	0x3dd47c1b	0.10375234
170	0xbdd55a11	-0.104175694
171	0xbdf0196b	-0.11723598
172	0xbd06e621	-0.03293431
173	0xbd9919c2	-0.07475616
174	0xba016449	-0.0004935903
175	0x3e2dae5f	0.16961049
176	0x3d740d52	0.059583016
177	0xbcfdbd2b	-0.030973991
178	0x3de61bf7	0.112358026
179	0x3ddcfd23	0.107904695
180	0x3dba6795	0.09101788
181	0x3e3a40d0	0.18188787
182	0x3ccb91b6	0.024849754
183	0x3de7a7cf	0.11311304
184	0xbcab0241	-0.020875098
185	0xbe09929b	-0.13434832
186	0x3d35820c	0.044313475
187	0x3dbfb341	0.09360362
188	0xbcf1a2df	-0.029496608
189	0x3d6e55f1	0.05818743
190	0x3d220a45	0.039560575
191	0x3dae3115	0.085054554
192	0x3ce46fe1	0.02788538
193	0xbca9b5b9	-0.020716535
194	0xbd9a0ee7	-0.07522374
195	0x3cf35e26	0.02970798
196	0xbc88bbb5	-0.016691068
197	0xbd873188	-0.06601244
198	0x3e310dc2	0.17290404
199	0x3d82b357	0.063818626
200	0xbd4b8725	-0.04968943
201	0x3c2de998	0.010614775
202	0xbe69482a	-0.22781435
203	0xbe1675a0	-0.14693308
204	0xbde2a76b	-0.11067089
205	0xbd8cdfb5	-0.06878606
206	0x3e48e094	0.1961692
207	0xbcbf5e10	-0.023360282
208	0xbd95b362	-0.07309605
209	0xbe86acca	-0.26303703
210	0xbe4dc7d3	-0.20095758
211	0xbdca43d8	-0.098762214
212	0x3d95716b	0.072970234
213	0xba84da81	-0.001013592
214	0x3d2fe542	0.042943247
215	0xbda9ff6f	-0.08300673
216	0x3cf1bb86	0.029508363
217	0xbd55d04c	-0.0522006
218	0x3e6fc883	0.23416333
219	0xbd27b826	-0.040947102
220	0xbe019a57	-0.12656532
221	0x3dcff9e0	0.10155082
222	0xbd22fd0d	-0.03979211
223	0xbe4a9993	-0.19785146
224	0x3dfa76ae	0.122296676
225	0xbdcb5f46	-0.09930281
226	0xbcd48a23	-0.025944775
227	0x3d600f2a	0.05470196
228	0x3d407cf2	0.046994157
229	0x3d1ede84	0.038786426
230	0xbb24571d	-0.0025076338
231	0xbd7ffff0	-0.06249994
232	0x3e5d5623	0.2161489
233	0xbd63f1f8	-0.05565068
234	0x3bf2af9c	0.007406188
235	0xbc39c643	-0.011338773
236	0x3d99c300	0.075078964
237	0x3d88c4b9	0.06678147
238	0xbd899aea	-0.06719001
239	0x3c92b3fe	0.017908093
240	0x3d9d24ca	0.076730326
241	0xbe0973a9	-0.13423027
242	0xbd75fe93	-0.060057234
243	0xbddd8212	-0.108158246
244	0x3e1fe355	0.15614064
245	0x3df4b218	0.11948031
246	0xbcb9f969	-0.022701936
247	0x3e0dd98b	0.13852517
248	0xbd5238c4	-0.051323667
249	0xbd26c163	-0.04071177
250	0x3db3f362	0.08786656
251	0xbc66236e	-0.014046533
252	0x3d5dc245	0.054140348
253	0x3dccb473	0.099953555
254	0x3d83234d	0.064032175
255	0x3d289621	0.0411588

fc3.bias f4 [64]
0	0x3dc33400	0.095314026
1	0x3e43579e	0.19076392
2	0x3d1b561b	0.037923913
3	0xbcbb5d2b	-0.022871574
4	0xbd9c55b9	-0.07633538
5	0x3db2c937	0.08729785
6	0x3dc2cea9	0.095120735
7	0x3dbd1abf	0.09233617
8	0x3d0b07f7	0.033943143
9	0xbe36bf6c	-0.17846459
10	0x3d3d97bb	0.04628728
11	0x3e40f39c	0.1884293
12	0x3e6fd3f4	0.23420697
13	0xbd903ed7	-0.07043236
14	0x3c3d3ff4	0.011550892
15	0xbddbf9aa	-0.10740979
16	0xbe021ef3	-0.12707119
17	0x3e0ab397	0.1354507
18	0x3d8d5157	0.0690028
19	0xbd83616b	-0.064150654
20	0x3dd90d78	0.10598272
21	0x3e033271	0.1281221
22	0x3e2e1ca6	0.17003116
23	0x3c7ecbe6	0.015551543
24	0x3d414d34	0.047192767
25	0xbd9938e4	-0.07481554
26	0xbd2d4bd8	-0.04230866
27	0x3c3dfd96	0.011596104
28	0x3d1e5751	0.03865749
29	0x3e2b4dac	0.16728848
30	0x3dde4fa6	0.108550355
31	0xbe176e53	-0.14788179
32	0xbd6f555b	-0.05843101
33	0x3e4b3b32	0.198468
34	0xbdb35e21	-0.08758188
35	0xbe116ff4	-0.14202863
36	0x3e5466c5	0.20742328
37	0xbb87ec0b	-0.0041480116
38	0xbe1a31c0	-0.1505804
39	0x3dfb2006	0.12261967
40	0x3e22a363	0.1588264
41	0x3dc6a116	0.096986935
42	0xbe111576	-0.14168343
43	0xbd8bba60	-0.068226576
44	0xbbe4b015	-0.0069789984
45	0x3d0867e7	0.033302214
46	0x3dce49c5	0.10072664
47	0xbdd03f70	-0.1016835
48	0x3e4b105d	0.19830461
49	0x3d68ac04	0.056804672
50	0x3d259361	0.040423755
51	0xbde1224f	-0.10992872
52	0x3de6949c	0.11258814
53	0x3d70000b	0.05859379
54	0x3d202b04	0.039103523
55	0xbdb71d7f	-0.08941173
56	0x3d863ce9	0.065545864
57	0x3e151d9a	0.14562073
58	0x3ce7c2f9	0.028291212
59	0xbdc1d481	-0.0946436
60	0x3e2ab3f4	0.16670209
61	0x3dcd4f1f	0.10024857
62	0xbd4b6901	-0.049660686
63	0x3dafe35a	0.08588286

fc4.weight f4 [10, 64]
0	0x3dd6b97f	0.10484599
1	0xbe2e785d	-0.17038102
2	0xbd810f48	-0.06301743
3	0x3d9dc78e	0.07704078
4	0x3dfbd6a6	0.122968
5	0x3cbae474	0.022814013
6	0x3ca514ba	0.020151485
7	0x3d29c940	0.041451693
8	0x3dd95f67	0.106139
9	0xbd03e3d4	-0.032199696
10	0xbda8312a	-0.08212502
11	0xbdc8400b	-0.0977784
12	0xbcd04f4d	-0.025428439
13	0xbee822d0	-0.4533906
14	0x3d035209	0.032060657
15	0xbe915b98	-0.28390193
16	0xbddd4335	-0.10803834
17	0x3e08671f	0.13320588
18	0xbd74eff4	-0.05979915
19	0xbe1a9236	-0.15094838
20	0x399ac818	0.0002952225
21	0xbe4b7dbd	-0.19872184
22	0x3de8e8d8	0.113725364
23	0xbe68a598	-0.22719419
24	0xbdca3bca	-0.09874685
25	0xbd3e7693	-0.0464998
26	0x3c3a294d	0.011362386
27	0x3cce5a03	0.025189405
28	0xbd1eeef0	-0.038802087
29	0xbd8d7c73	-0.069085024
30	0x3d8c4520	0.06849122
31	0xbe452901	-0.19253923
32	0x3d56ff83	0.05248977
33	0x3dd4b101	0.10385323
34	0xbee7aee7	-0.45250627
35	0xbd03f383	-0.032214653
36	0xbe4b5e55	-0.19860204
37	0xbdc3cfc7	-0.09561115
38	0xbe53a092	-0.20666721
39	0x3dfee1ae	0.12445389
40	0xbe568484	-0.20948988
41	0x3ded3ae8	0.11583501
42	0xbd7fdde0	-0.062467456
43	0x3e2c7706	0.16842279
44	0xbe40a9d9	-0.18814792
45	0xbe5055c1	-0.20345213
46	0xbc45c98c	-0.012071978
47	0xbda582b9	-0.08081574
48	0xbd1fc669	-0.039007578
49	0xbde62d5f	-0.112391226
50	0xbe2e2110	-0.170048
51	0xbe32d687	-0.17464648
52	0x3d9768ba	0.07393022
53	0xbdc3bdd5	-0.09557692
54	0xbe18a0e3	-0.14905123
55	0x3cd78adc	0.02631133
56	0xbbd7219c	-0.006565286
57	0x3e084f93	0.13311605
58	0x3df4bc90	0.11950028
59	0xbd881c9a	-0.0664608
60	0xbe9895e4	-0.29801857
61	0x3d6c6cd5	0.057720978
62	0xbcf5de73	-0.030013299
63	0x3dfbdf99	0.12298507
64	0xbe192e45	-0.14959057
65	0x3dacb355	0.08432642
66	0xbdf249c0	-0.11830473
67	0x3dcafefb	0.09911915
68	0xbe0e7633	-0.13912277
69	0x3df11700	0.11771965
70	0xbe2c0818	-0.16799963
71	0xbc80b627	-0.015711857
72	0x3d601e77	0.054716554
73	0x3cbb0197	0.022827907
74	0x3cf1d3a3	0.029519862
75	0xbe5d98ad	-0.21640272
76	0xbedd62cd	-0.43239442
77	0xbe2fa0ef	-0.17151235
78	0xbdf4bb63	-0.11949804
79	0xbe5cb08d	-0.21551724
80	0xbdf30d04	-0.11867717
81	0xbdabe68c	-0.08393583
82	0xbdaee27b	-0.085392915
83	0xbe92d21b	-0.28675923
84	0x3e289f92	0.16467121
85	0x3e3a099d	0.1816773
86	0xbe3531ad	-0.17694731
87	0xbe800742	-0.25005537
88	0x3e273d3e	0.16331956
89	0x3ddcc2a2	0.10779311
90	0x3e1aad4a	0.15105167
91	0xbe89575e	-0.26824468
92	0xbe9154f3	-0.28385124
93	0xbdade51a	-0.08490963
94	0x3d7f69ae	0.062356643
95	0xbe1758f9	-0.14780034
96	0x3cf02b2d	0.029317463
97	0xbdf70d02	-0.12063028
98	0xbc908b02	-0.01764441
99	0xbd7226f4	-0.05911918
100	0x3e341d99	0.17589416
101	0xbe85c56a	-0.26127177
102	0xbe02e664	-0.127832
103	0xbd3db1e7	-0.04631224
104	0x3d9151a8	0.07095653
105	0xbdb335dc	-0.08750507
106	0xbe544a36	-0.20731434
107	0xbe957d95	-0.29197374
108	0xbf070783	-0.52745837
109	0x3c682876	0.014169803
110	0xbe2cb280	-0.16864967
111	0x3d8dd884	0.06926063
112	0xbe6f0a09	-0.23343672
113	0xbe12baf6	-0.14329132
114	0xbe760edf	-0.2402911
115	0xbe25f20f	-0.1620562
116	0xbe6a08de	-0.22854945
117	0xbe9c4151	-0.30518582
118	0x3da9f65a	0.08298941
119	0x3de437d5	0.111434616
120	0x3dbc70bc	0.0920119
121	0xbca12641	-0.019671561
122	0xbe084269	-0.13306583
123	0xbdd0905a	-0.10183783
124	0xbbc9a0fd	-0.0061532245
125	0xbb8938f0	-0.0041876957
126	0xbda2c50e	-0.079477414
127	0x3e045863	0.12924342
128	0x3dabb6b7	0.083844595
129	0x3e123812	0.14279202
130	0x3da1bd4f	0.07897436
131	0xbe250691	-0.16115786
132	0xbe181f6f	-0.14855741
133	0xbebb3963	-0.3656722
134	0xbdcf9246	-0.10135321
135	0xbc6b692c	-0.014368337
136	0x3dbe6945	0.09297422
137	0x3be50b59	0.006989878
138	0xbded1d35	-0.115778364
139	0x3dd7eada	0.10542841
140	0x3db03565	0.08603934
141	0xbe2d8de9	-0.16948666
142	0x3dd45e18	0.103695095
143	0xbe8ad75b	-0.27117428
144	0x3ac77210	0.0015216488
145	0x3d5bec6b	0.053692263
146	0xbdba6d3c	-0.09102866
147	0xbea65cd7	-0.32492706
148	0xbda2756d	-0.079325534
149	0xbc891f57	-0.016738577
150	0xbe12c8d3	-0.14334421
151	0xbe00130e	-0.12507269
152	0xbdb88b19	-0.09010906
153	0xbe535d51	-0.20641066
154	0xbe814fbb	-0.25256142
155	0xbe8d154b	-0.27555308
156	0xbddfeaa3	-0.10933425
157	0xbc24dad8	-0.010061942
158	0x3e16e3f8	0.147354
159	0xbe4bbca2	-0.19896176
160	0xb8cb0a76	-9.681743e-05
161	0x3e053c57	0.13011299
162	0xbeca4036	-0.39502114
163	0x3d3f668b	0.046728652
164	0x3dc6ef56	0.097136185
165	0x3e560272	0.2089937
166	0x3d172c6e	0.036907606
167	0x3b887311	0.0041641076
168	0x3d8b7329	0.068090744
169	0x3d9f40cc	0.07776031
170	0xbe8eef3a	-0.2791689
171	0xbe38e88b	-0.18057458
172	0xbeafa522	-0.34305674
173	0xbe10a57e	-0.1412563
174	0x3de4a5a6	0.111644074
175	0x3db8b6e8	0.090192616
176	0x3daf697e	0.08565043
177	0x3d651dc5	0.055936594
178	0x3d353d90	0.044248164
179	0x3dac07e6	0.08399944
180	0x3e07b49d	0.13252492
181	0x3d3c92da	0.046038486
182	0xbe982a35	-0.297197
183	0xbe1c71aa	-0.15277734
184	0x3d9487e2	0.0725248
185	0xbd8c2a5e	-0.068440184
186	0xbe1c51a3	-0.15265517
187	0xbc34dd10	-0.0110390335
188	0xbe1bf79e	-0.15231177
189	0x3d74766e	0.059683256
190	0x3c85e8fb	0.016346445
191	0xbde234a9	-0.110452004
192	0x3b95da6d	0.0045731575
193	0x3da773e7	0.081764035
194	0xbdbeb9f7	-0.09312814
195	0x3db01a54	0.08598772
196	0xbe473cd6	-0.19456801
197	0x3db8db10	0.09026158
198	0x3e00f917	0.1259502
199	0x3d8df769	0.06931955
200	0xbb24f329	-0.0025169349
201	0xbd8cb765	-0.06870917
202	0x3da1a21a	0.078922465
203	0xbd258025	-0.04040541
204	0xbe1e20c4	-0.15442187
205	0xbe948158	-0.2900493
206	0x3d917b2f	0.071035735
207	0xbe7a08d2	-0.24417427
208	0x3a8da4de	0.001080658
209	0x3e07c2ec	0.1325795
210	0xbd741000	-0.05958557
211	0xbebf3f8d	-0.37353173
212	0x3d512214	0.05105789
213	0xbd2f7018	-0.04283151
214	0xbe443857	-0.19162117
215	0x3cbaf3da	0.022821356
216	0x3e237709	0.15963377
217	0x3d4148e6	0.047188662
218	0xbd849a60	-0.06474757
219	0xbe2078c2	-0.15671065
220	0xbeb4ba72	-0.35298496
221	0x3da0a2bf	0.07843541
222	0xbe65ea6c	-0.22452706
223	0x3e3c58d9	0.18393268
224	0xbd9646b3	-0.073377036
225	0x3dfbd168	0.122958004
226	0xbee9576c	-0.4557451
227	0x3dbbcb2b	0.091696106
228	0xbc55b019	-0.013042473
229	0x3c3fb88a	0.011701712
230	0x3d3227a4	0.043494835
231	0x3cf39c6f	0.02973768
232	0xbe6b1342	-0.22956565
233	0x3c9a10fd	0.018806929
234	0xbe359e71	-0.17736222
235	0xbe82d7eb	-0.25555357
236	0xbe4b973d	-0.19881912
237	0xbdd4addb	-0.10384723
238	0xbe40ba3b	-0.18821041
239	0xbce0ec12	-0.027456317
240	0x3e00046e	0.1250169
241	0x3c3052a5	0.0107618915
242	0xbdec2852	-0.11531128
243	0xbd3e236b	-0.046420496
244	0xbde6aec4	-0.11263803
245	0x3c7295d2	0.014806228
246	0xbe08361d	-0.13301893
247	0x3dac2778	0.084059656
248	0xbd0e7c1e	-0.034786336
249	0xbdc9664e	-0.09833966
250	0xbdab9748	-0.08378464
251	0xbdebebc1	-0.11519576
252	0x3e11f80c	0.14254779
253	0x3da5b297	0.08090704
254	0xbd1db2e3	-0.038500678
255	0x3db0b257	0.086277656

fc4.bias f4 [10]
0	0xbe367b8e	-0.1782057
1	0xbe0fe770	-0.1405313
2	0x3c218419	0.009858155
3	0x3a17e24b	0.0005793913
4	0xba4ca6ef	-0.00078068575
5	0x3d4b6780	0.049659252
6	0x3dce99bc	0.10087916
7	0x3c995814	0.018718757
8	0x3d769abd	0.060206164
9	0xbd937ae4	-0.07201174
