Programming Assignment 3/ffn.pth (torch, 973648 bytes, 8 tensors)

fc1.weight f4 [256, 784]
0.035609532 0.06613095 0.06537137 0.047597624 0.07845896 0.055560853 0.067999296 0.05566633
0.014040233 0.047249258 0.16463374 0.06315869 0.024219304 0.16619839 0.118889295 0.046096284
0.12332675 0.029384833 0.068489335 0.11832508 0.01597607 0.03415568 0.038693704 0.058860186
0.087306604 0.061894156 0.029776908 0.019226411 0.030081144 0.049489077 0.058862288 0.016371438
0.08074642 0.045135714 -0.033754464 -0.08254144 -0.15093248 0.045705028 0.042719048 0.038771633
0.09847704 -0.1714976 -0.34215558 -0.15532444 0.03483907 -0.054610223 -0.073309116 -0.042183496
-0.086575635 0.014941607 0.06333956 0.062588744 0.08247561 0.0399427 0.051580887 0.018665696
0.055773985 0.037019197 0.02245529 0.07743254 0.05191297 -0.007144252 -0.056083865 -0.049001817
-0.077904195 -0.027619889 0.064309075 0.099497005 0.058914747 -0.16655356 -0.22588293 0.0070107444
0.01755807 0.012144026 -0.028012486 -0.0016758171 -0.035980377 -0.041714203 -0.017424868 0.05043953
0.02851597 0.08975488 0.02485694 0.08246057 0.058756504 0.024749333 0.027966537 0.041853756
0.025522584 -0.005859624 -0.049809054 -0.039527837 -0.04901016 0.03799648 0.019795345 0.17944157
-0.084894806 -0.042848654 -0.07689005 -0.0011887285 0.0007949095 -0.0013409533 0.06071133 0.0428346
-0.013552705 -0.026875537 -0.033650395 -0.002752179 0.071589075 0.036441788 0.05211152 0.067109786
0.060914792 0.08625943 0.045988884 0.03476063 -0.020744558 -0.04892427 -0.04823671 -0.05261785
-0.07753168 0.07406395 -0.027084267 0.0395418 -0.017711831 0.08156402 -0.1324399 -0.07017967
0.05296384 -0.1219212 0.059985023 -0.0039581307 -0.03155204 -0.08259618 -0.0209967 0.019420924
0.06809685 0.053908654 0.022215677 0.05202037 0.06418163 0.07605345 0.05899565 0.03171302
-0.00471811 -0.04444262 -0.044725027 -0.0071953023 -0.00569181 0.08939969 -0.052864853 -0.047346804
0.03621948 0.090989366 0.023753276 -0.03466358 0.06484004 -0.13240741 0.026866056 -0.0272384
-0.06234473 -0.002352976 -0.06474238 -0.025895216 0.059708185 0.034153827 0.07474995 0.07027323
0.031305578 0.06919471 0.017028205 0.034364995 0.029265523 -0.051262453 -0.070443764 -0.05877171
-0.09660643 0.08111018 -0.031862605 -0.14251739 -0.04682712 0.012100569 -0.09526065 -0.023250198
0.025763756 -0.12037208 -0.0428507 -0.0070142085 -0.026362512 -0.022550702 -0.048662283 0.01805039
0.02949178 0.07194225 0.044532266 0.04248626 0.049135137 0.0248256 0.06700879 0.0076559
-0.027273733 -0.111594826 -0.037015114 -0.051070668 -0.1098906 0.19260278 -0.06988069 -0.20010906
0.07511662 -0.0073590702 0.06409613 0.04323823 -0.0025597499 -0.11073508 0.017919729 -0.0077057537
0.009270587 -0.013192952 -0.046617605 0.010124127 0.057891946 0.054004427 0.02499981 0.07904057
0.03677806 0.031212736 0.041278332 0.0634939 0.018238626 -0.04057045 -0.08018412 -0.07285389
-0.11430176 0.17103262 -0.012555519 -0.1902847 -0.039337177 -0.03428868 -0.023463886 -0.036969487
-0.19204177 -0.14906053 -0.07114708 -0.059607755 -0.08082993 -0.042383913 -0.111838356 -0.04474753
0.028065583 0.017154062 0.058390066 0.050052237 0.067758076 0.057127565 0.06848532 0.045328252
00000000: 4ddb 113d aa6f 873d 6de1 853d baf5 423d
00000010: 17af a03d c793 633d 3743 8b3d 6102 643d
00000020: 0109 663c 7088 413d bf95 283e 5859 813d
00000030: 9067 c63c e92f 2a3e 3b7c f33d 75cf 3c3d
00000040: bc92 fc3d 76b8 f03c 2344 8c3d 6b54 f23d
00000050: 3fe0 823c d4e6 0b3d 4a7d 1e3d 6117 713d
00000060: cecd b23d ba84 7d3d b4ee f33c b580 9d3c
00000070: bb6c f63c 0fb5 4a3d 9519 713d 651d 863c
00000080: 615e a53d 3ae0 383d 1f42 0abd 7d0b a9bd
00000090: 0b8e 1abe 3235 3b3d 2bfa 2e3d 01cf 1e3d
000000a0: 55ae c93d 119d 2fbe 042f afbe 5f0d 1fbe
000000b0: 6ab3 0e3d f8ae 5fbd 1723 96bd 9ac8 2cbd
000000c0: 914e b1bd a4cd 743c 2cb8 813d 872e 803d
000000d0: f9e8 a83d f59a 233d 7b46 533d cde8 983c
000000e0: 4373 643d 71a1 173d 28f4 b73c f494 9e3d
000000f0: b2a2 543d 541a eabb 32b8 65bd 21b6 48bd
00000100: 3c8c 9fbd 1b43 e2bc 7ab4 833d 16c5 cb3d
00000110: 9750 713d 048d 2abe db4d 67be 63ba e53b
00000120: f1d5 8f3c bdf7 463c 717a e5bc 17a7 dbba
00000130: 2960 13bd 83dc 2abd 99be 8ebc ae99 4e3d
00000140: 539a e93c 68d1 b73d c8a0 cb3c 16e1 a83d
00000150: a9aa 703d 1dbf ca3c 141a e53c d86e 2b3d
00000160: bd14 d13c 1702 c0bb 9404 4cbd f1e7 21bd
00000170: e1be 48bd 32a2 1b3d d929 a23c 88bf 373e
00000180: 54dd adbd 1282 2fbd 8878 9dbd 1ccf 9bba
00000190: 7961 503a edc2 afba 72ac 783d 5573 2f3d
000001a0: 2a0c 5ebc 162a dcbc ffd4 09bd e75d 34bb
000001b0: 4b9d 923d fc43 153d e472 553d db70 893d
000001c0: ca81 793d c9a8 b03d d75e 3c3d 2a61 0e3d
000001d0: 7ef0 a9bc d164 48bd db93 45bd d185 57bd
000001e0: eec8 9ebd d7ae 973d d3df ddbc 95f6 213d
000001f0: 6718 91bc 090b a73d 539e 07be 5cba 8fbd
00000200: 9df0 583d d2b1 f9bd dbb2 753d 35b3 81bb
00000210: b63c 01bd 3028 a9bd 4501 acbc a118 9f3c
00000220: 5c76 8b3d 52cf 5c3d a7fd b53c 5013 553d
00000230: a971 833d e9c1 9b3d 6ca5 713d 83e5 013d
00000240: 609a 9abb 7709 36bd 9731 37bd 92c6 ebbb
00000250: 5d82 babb 2f17 b73d d188 58bd b9ee 41bd
00000260: e15a 143d a258 ba3d 3b96 c23c 66fb 0dbd
00000270: dbca 843d cf95 07be 3416 dc3c 1123 dfbc
00000280: 305d 7fbd 6334 1abb a797 84bd 3422 d4bc
00000290: 9290 743d e2e4 0b3d 8016 993d 69eb 8f3d
000002a0: 473a 003d f5b5 8d3d bc7e 8b3c 4fc2 0c3d
000002b0: 40be ef3c 94f8 51bd d244 90bd 9bba 70bd
000002c0: 98d9 c5bd 181d a63d 5d82 02bd 14f0 11be
000002d0: cbcd 3fbd 7741 463c 0418 c3bd 3377 bebc
000002e0: 830e d33c a385 f6bd 3784 2fbd 72d7 e5bb
000002f0: 32f6 d7bc 40bc b8bc 1a52 47bd 69de 933c
00000300: bf98 f13c 7556 933d 7767 363d 1306 2e3d
00000310: ed41 493d 0f5f cb3c e83b 893d 58de fa3b
00000320: 2a6d dfbc d48b e4bd 299d 17bd 7a2f 51bd
00000330: 530e e1bd aa39 453e 9b1d 8fbd 64e9 4cbe
00000340: bed6 993d 5b24 f1bb d544 833d 921a 313d
00000350: 7ac1 27bb 13c9 e2bd 65cc 923c 8c80 fcbb
00000360: a9e3 173c 4027 58bc 1af2 3ebd abdf 253c
00000370: 1b20 6d3d bf33 5d3d 67cc cc3c 06e0 a13d
00000380: 97a4 163d dab1 ff3c 7813 293d 1709 823d
00000390: 2c69 953c 332d 26bd 9237 a4bd 6c34 95bd
000003a0: 0b17 eabd 2d23 2f3e aab5 4dbc fed9 42be
000003b0: 0520 21bd 4972 0cbd 5637 c0bc 516d 17bd
000003c0: 99a6 44be 53a3 18be 8fb5 91bd 4327 74bd
000003d0: 2a8a a5bd c19a 2dbd 820b e5bd 3049 37bd
000003e0: cbe9 e53c ad86 8c3c 6c2a 6f3d 9303 4d3d
000003f0: bfc4 8a3d 98fe 693d 0842 8c3d 1eaa 393d

fc1.bias f4 [256]
-0.074165665 -0.0011026993 0.00053967495 0.0052986047 0.05033622 0.0114361355 -0.058898564 -0.05650971
-0.005592615 0.040002156 0.026057992 -0.0116070295 -0.027854515 -0.0720934 -0.03320139 -0.011527829
-0.054331258 0.008115883 -0.06708286 0.040362097 -0.016794732 -0.10186164 -0.033498954 -0.019126402
-0.029176159 -0.06408838 0.034633666 -0.06737321 -0.024588423 -0.0031666125 -0.026747255 0.013861811
-0.018060956 -0.043572754 0.0056658173 -0.010005658 -0.021573424 -0.03863816 -0.067100786 0.008453755
-0.06743999 -0.024707643 -0.06343339 -0.043272495 -0.007109136 -0.0840488 -0.045441337 0.008819408
-0.04121393 0.0005881589 -0.04299739 -0.071604304 -0.06349789 0.025603196 -0.033004247 -0.061832894
-0.068593 -0.058529403 0.033139586 -0.02940734 -0.04557019 -0.013148651 -0.04957671 -0.089944996
-0.040301744 -0.04045421 -0.057914276 0.024737958 -0.070786975 -0.0026259744 0.009794293 0.018291373
-0.013181951 0.0073758345 -0.014114187 0.0019487174 -0.034790758 0.021922471 -0.040381204 -0.09797507
-0.009812691 -0.020974664 0.046548262 -0.029710485 0.02279021 -0.012061802 0.12539554 -0.086326815
-0.072090976 -0.07304422 -0.012662703 -0.061967388 -0.006742118 -0.027464649 0.0030362445 -0.028795287
-0.062249783 -0.08953551 -0.03145652 -0.0024907466 0.018557118 -0.0037044326 -0.034187496 0.019537944
-0.03736818 0.048012268 -0.011427684 -0.0049828887 -0.055272438 -0.072694324 -0.0999326 -0.009975499
-0.019881716 0.07633603 0.027578477 -0.015649803 -0.060245685 -0.0058071255 -0.03580299 -0.050810933
-0.04245852 0.013059807 -0.04997025 -0.015184123 -0.09743031 -0.04070174 0.0034070332 -0.07340201
-0.026523985 -0.04217795 -0.043544598 -0.058774404 -0.029153189 -0.058172 -0.05881412 0.04241898
-0.06384048 -0.018251527 -0.047499754 0.009135322 -0.027187387 0.020286087 -0.023026502 0.0009298616
-0.06994579 0.0064667594 0.015794966 -0.04967144 -0.028647179 -0.024371166 0.031134203 -0.022871416
-0.018997697 -0.06037479 -0.061602093 0.06391185 0.012959106 -0.06163559 -0.0050688144 -0.076404884
-0.043546796 -0.016092211 -0.037714183 -0.016190276 -0.034565438 0.0016435927 -0.025434392 -0.015895123
-0.0034054068 0.0843218 0.028418997 -0.046161074 -0.02319052 -0.0040879045 0.034638762 -0.0303065
-0.076590694 -0.048693717 -0.06695042 -0.0111161 -0.06441505 -0.00086801127 -0.01790995 0.02324428
-0.036845516 -0.08176244 -0.06481815 -0.049332142 -0.0761337 0.03766062 -0.0032449723 -0.02426696
-0.026358956 -0.014825371 -0.03844436 -0.07744145 -0.02040371 -0.056465168 0.016299708 0.04421251
0.01261903 -0.04838104 -0.09862758 0.0038421354 -0.007470843 0.0153634595 -0.066981375 0.006724172
-0.053384285 -0.039433375 -0.038749643 -0.035659757 -0.03646637 -0.038171418 -0.0171498 -0.041496947
-0.00037758 0.06942965 -0.046174712 -0.005967619 -0.055189688 -0.043738153 -0.0433465 -0.023095276
-0.056646883 0.0010830605 -0.0042164777 -0.003406227 -0.055519823 -0.049681585 -0.015891142 0.021774037
-0.052238226 -0.018539052 -0.028976576 -0.00573005 -0.08001376 0.0032126156 -0.08916648 -0.042199742
-0.087308586 -0.06536505 0.04305941 -0.00073212135 -0.04094278 -0.0068155685 -0.026465679 -0.04855266
-0.009654225 0.019807413 -0.046874646 -0.007110522 -0.043667834 -0.0033559143 -0.018868709 -0.04993517
00000000: 2be4 97bd 7388 90ba f978 0d3a eb9f ad3b
00000010: 5a2d 4e3d a15e 3b3c 9f3f 71bd ba76 67bd
00000020: 4142 b7bb 4dd9 233d 9277 d53c 692b 3ebc
00000030: 272f e4bc b4a5 93bd 2efe 07bd 38df 3cbc
00000040: 748a 5ebd 7bf8 043c bd62 89bd ba52 253d
00000050: 1b95 89bc d69c d0bd 3336 09bd f9ae 9cbc
00000060: d702 efbc c540 83bd 08dc 0d3d f7fa 89bd
00000070: a96d c9bc f186 4fbb 0f1d dbbc a61c 633c
00000080: 92f4 93bc 5879 32bd 52a8 b93b c5ee 23bc
00000090: c0ba b0bc 0c43 1ebd 236c 89bd 9e81 0a3c
000000a0: fa1d 8abd af67 cabc 5de9 81bd 803e 31bd
000000b0: c1f3 e8bb c721 acbd b220 3abd 477f 103c
000000c0: f0cf 28bd ad2e 1a3a 081e 30bd 47a5 92bd
000000d0: 2f0b 82bd cbbd d13c 762f 07bd 7d44 7dbd
000000e0: 7d7a 8cbd 87bc 6fbd 60bd 073d a9e7 f0bc
000000f0: cfa7 3abd 716d 57bc f310 4bbd 1535 b8bd
00000100: 7113 25bd 50b3 25bd 8537 6dbd 42a7 ca3c
00000110: c3f8 90bd 8a18 2cbb 3e78 203c cad7 953c
00000120: 1cf9 57bc fcb0 f13b 313f 67bc 1b6c ff3a
00000130: c180 0ebd c196 b33c c366 25bd 27a7 c8bd
00000140: 69c5 20bc 0fd3 abbc 64a9 3e3d 6763 f3bc
00000150: 89b2 ba3c dd9e 45bc b067 003e 1dcc b0bd
00000160: 6fa4 93bd 3598 95bd 3a77 4fbc 84d1 7dbd
00000170: fcec dcbb 8bfd e0bc bbfb 463b 18e4 ebbc
00000180: a1f9 7ebd 655e b7bd 8dd8 00bd cb3b 23bb
00000190: 1905 983c 11c6 72bb 3008 0cbd 0a0e a03c
000001a0: 600f 19bd 83a8 443d 2e3b 3bbc 8047 a3bb
000001b0: 5a65 62bd c3e0 94bd 77a9 ccbd 4670 23bc
000001c0: fbde a2bc 1156 9c3d 42ec e13c 0434 80bc
000001d0: 2ec4 76bd b349 bebb 28a6 12bd 201f 50bd
000001e0: fce8 2dbd cdf8 553c 9bad 4cbd d4c6 78bc
000001f0: 8b89 c7bd deb6 26bd 8848 5f3b cb53 96bd
00000200: d448 d9bc c9c2 2cbd d25b 32bd 6ebd 70bd
00000210: abd2 eebc c345 6ebd 13e7 70bd 86bf 2d3d
00000220: ccbe 82bd 3a84 95bc 1a8f 42bd 51ac 153c
00000230: 15b8 debc 022f a63c 13a2 bcbc f5c1 733a
00000240: bd3f 8fbd 1ce7 d33b 7264 813c 4874 4bbd
00000250: 7dad eabc 0aa6 c7bc 280d ff3c d65c bbbc
00000260: 0fa1 9bbc 8e4b 77bd 7a52 7cbd 37e4 823d
00000270: 6e52 543c 9a75 7cbd 4c18 a6bb 2a7a 9cbd
00000280: 205e 32bd d0d3 83bc 307a 1abd 78a1 84bc
00000290: 7d94 0dbd d26d d73a c95b d0bc 7d36 82bc
000002a0: 3f2d 5fbb e8b0 ac3d f5ce e83c 6513 3dbd
000002b0: 0cfa bdbc d4f3 85bb 60e1 0d3d 5645 f8bc
000002c0: 95db 9cbd 1073 47bd 4d1d 89bd 4d20 36bc
000002d0: 0aec 83bd 408b 63ba e3b7 92bc ca6a be3c
000002e0: 53eb 16bd 1173 a7bd 61bf 84bd 8010 4abd
000002f0: fceb 9bbd 0642 1a3d 9aa9 54bb 81cb c6bc
00000300: bdee d7bc 1de6 72bc d577 1dbd 9f99 9ebd
00000310: ae25 a7bc 0548 67bd f786 853c 2d18 353d
00000320: 0cc0 4e3c 332b 46bd 42fd c9bd 56cc 7b3b
00000330: f9cd f4bb 05b7 7b3c 882d 89bd 7156 dc3b
00000340: 7ba9 5abd e484 21bd f2b7 1ebd f70f 12bd
00000350: c35d 15bd a259 1cbd bd7d 8cbc b4f8 29bd
00000360: eef5 c5b9 2231 8e3d b221 3dbd 048c c3bb
00000370: 950e 62bd c726 33bd 198c 31bd 4e32 bdbc
00000380: 9006 68bd 7bf5 8d3a 612a 8abb 023b 5fbb
00000390: c168 63bd eb7e 4bbd 242e 82bc 775f b23c
000003a0: c0f7 55bd 36df 97bc 4960 edbc 25c3 bbbb
000003b0: 41de a3bd bf8a 523b ea9c b6bd a3d9 2cbd
000003c0: d8ce b2bd 1dde 85bd 105f 303d d5eb 3fba
000003d0: 9eb3 27bd 2255 dfbb 8dce d8bc 27df 46bd
000003e0: c12c 1ebc 2843 a23c a1ff 3fbd 62ff e8bb
000003f0: 0bdd 32bd e6ee 5bbb 8d92 9abc d288 4cbd

fc2.weight f4 [128, 256]
0.078695 0.025511963 -0.060821053 -0.10066717 -0.07972662 -0.0033766 0.027962636 0.1633436
0.057785876 -0.09247494 -0.33382842 0.054881983 0.025399381 0.01810214 0.11744206 -0.04597775
0.04008687 -0.12306343 -0.050467953 -0.0030691226 0.061189983 0.024021415 0.03699723 0.073627315
-0.053265113 0.02643237 -0.1310568 -0.059120037 -0.04648013 0.011078005 -0.045129467 -0.02024488
0.17384657 0.09788353 -0.033664774 -0.07092473 0.031620976 -0.19906642 -0.031841338 -0.033514462
0.03588963 0.054047972 0.08586404 0.028380718 -0.005780491 -0.06353086 -0.081755295 0.012427814
0.081024624 0.017831452 0.03232832 0.032540224 0.059659094 -0.09553957 -0.04194354 -0.10349116
0.03514432 -0.017579239 0.027014058 0.019533891 -0.02850286 0.046940915 0.058626316 0.10898937
0.0466316 0.14613242 0.017263394 -0.04019746 -0.046366666 -0.16127951 0.07368679 0.029297313
0.1059872 0.0034406243 -0.0477942 -0.07854144 -0.024562692 0.06613728 -0.0547707 0.011285831
0.18783715 -0.023778642 -0.25730342 0.0036508702 0.06470647 0.07744185 -0.08330751 -0.0045286673
0.050860908 0.059591748 0.046234265 0.053546265 -0.076032 -0.046596687 0.08309433 -0.16927767
-0.066459484 -0.038225282 0.031125834 -0.12899013 0.14976892 -0.07182989 -0.20057712 0.05198298
-0.069515206 -0.029108154 0.009306572 0.049419288 -0.14472823 -0.104381 0.09271663 0.08886656
0.0026143081 0.05104686 0.0082097165 -0.040990334 -0.1243911 -0.099511765 -0.0015861561 -0.0015988277
0.0066104583 -0.09610368 -0.036297288 0.1795489 0.029199403 0.02469945 0.0286571 -0.0017376319
-0.09459942 -0.029189358 0.034808513 0.096594594 0.019534366 -0.121442355 0.082985796 -0.03480502
0.15692121 -0.03828491 0.055060733 -0.01697052 -0.112941906 -0.1170702 -0.09844902 -0.02389873
0.11897962 0.012196538 0.004004641 -0.03974386 -0.0519673 0.11196427 -0.023682892 0.038053717
-0.0016797561 0.027695691 0.06096947 -0.008460454 -0.08217381 0.019857712 0.049605336 -0.093415655
0.05343343 0.059858482 0.06307049 0.095071346 -0.10370956 0.01567345 -0.11227217 0.038624607
-0.0064799394 -0.17330866 -0.031309545 0.032879308 0.15849522 0.070982814 0.009339566 0.06971841
-0.08745854 0.05904313 0.03442355 -0.15062818 0.0044964477 -0.0028096517 0.06212676 0.040243577
-0.0061148615 -0.07141728 0.090437934 0.015899267 0.17472905 -0.087760516 0.21584 -0.28614166
0.04514256 0.035631597 -0.014832024 0.07896477 0.10592001 0.0039080544 -0.026126731 -0.19561826
0.040393982 -0.0007204903 0.034200206 0.011921117 0.08630527 -0.28628334 0.033214334 0.06178669
0.01580398 0.020289864 0.038842667 0.004502955 0.0867716 -0.1353915 -0.00907575 0.009457593
0.07234294 -0.03862055 0.31614357 -0.050805762 0.0030058096 0.04079024 0.38357356 0.009301181
0.15841027 -0.11023771 0.03174695 -0.026778853 0.084487714 -0.026112791 -0.25169027 -0.13401878
-0.03831502 -0.020306854 -0.067262 -0.050674 0.14192289 -0.13160577 0.065383725 0.024237903
0.052653603 -0.15794262 -0.009871043 -0.07922575 -0.0023763732 -0.114679985 0.15260571 -0.0059926654
0.08355147 -0.044650637 0.05667841 -0.114545785 0.09304654 -0.03964498 0.005699509 -0.020024477
00000000: d82a a13d 77fe d03c 7f1f 79bd 972a cebd
00000010: b647 a3bd f349 5dbb e611 e53c 8b43 273e
00000020: e2b0 6c3d 8063 bdbd 8feb aabe eecb 603d
00000030: 5d12 d03c f04a 943c 7685 f03d 2a53 3cbd
00000040: 2132 243d ae08 fcbd 7cb7 4ebd 5523 49bb
00000050: 59a2 7a3d 8fc8 c43c 688a 173d ebc9 963d
00000060: 852c 5abd b388 d83c c133 06be da27 72bd
00000070: f361 3ebd 8580 353c add9 38bd 97d8 a5bc
00000080: d604 323e 2977 c83d 13e4 09bd fc40 91bd
00000090: ff84 013d 11d8 4bbe 106c 02bd 7646 09bd
000000a0: 0101 133d 6861 5d3d 7cd9 af3d ae7e e83c
000000b0: 466a bdbb 781c 82bd 526f a7bd 089e 4b3c
000000c0: 3df0 a53d 4413 923c b36a 043d e648 053d
000000d0: 185d 743d 40aa c3bd fdcc 2bbd 2cf3 d3bd
000000e0: 7ef3 0f3d 5602 90bc 964c dd3c 8a05 a03c
000000f0: d47e e9bc 1e45 403d 2622 703d d235 df3d
00000100: c700 3f3d bda3 153e f66b 8d3c 18a6 24bd
00000110: f9ea 3dbd 7526 25be 1ae9 963d eb00 f03c
00000120: d10f d93d 197c 613b dac3 43bd 56da a0bd
00000130: b337 c9bc fb72 873d 3e57 60bd 35e8 383c
00000140: 6258 403e 6dcb c2bc 46bd 83be 7043 6f3b
00000150: d384 843d d599 9e3d 219d aabd 3765 94bb
00000160: 8753 503d 7a16 743d 2460 3d3d 5453 5b3d
00000170: aab6 9bbd 2bdc 3ebd 5c2d aa3d 2057 2dbe
00000180: e91b 88bd 1d92 1cbd 9bfb fe3c fd15 04be
00000190: 065d 193e 8d1b 93bd 1764 4dbe 1bec 543d
000001a0: fd5d 8ebd 3974 eebc 987a 183c e16b 4a3d
000001b0: a333 14be b5c5 d5bd 37e2 bd3d acff b53d
000001c0: d054 2b3b 8316 513d 0c82 063c 7be5 27bd
000001d0: c3c0 febd d3cc cbbd 91e6 cfba c18f d1ba
000001e0: 8b9c d83b 02d2 c4bd 77ac 14bd abdb 373e
000001f0: 9633 ef3c 8056 ca3c 4bc2 ea3c 40c1 e3ba
00000200: 57bd c1bd 851e efbc 5f93 0e3d 63d3 c53d
00000210: 8906 a03c c5b6 f8bd 75f4 a93d b58f 0ebd
00000220: f4af 203e a3d0 1cbd 5d87 613d c305 8bbc
00000230: 164e e7bd 80c2 efbd a49f c9bd 45c7 c3bc
00000240: 96ab f33d fdd3 473c 5d39 833b 75ca 22bd
00000250: aadb 54bd 864d e53d a002 c2bc 37de 1b3d
00000260: 432b dcba 13e2 e23c 1fbb 793d b79d 0abc
00000270: be4a a8bd a4ac a23c f72e 4b3d b550 bfbd
00000280: 03dd 5a3d 2b2e 753d 1a2b 813d c4b4 c23d
00000290: ae65 d4bd 9b65 803c f4ee e5bd d634 1e3d
000002a0: ac55 d4bb d377 31be 703e 00bd 74ac 063d
000002b0: 924c 223e 705f 913d fb04 193c 87c8 8e3d
000002c0: 771d b3bd 36d7 713d b5ff 0c3d 463e 1abe
000002d0: f056 933b 2222 38bb a178 7e3d 73d6 243d
000002e0: 2d5f c8bb 3943 92bd 8637 b93d 2e3f 823c
000002f0: 2cec 323e c9bb b3bd 2905 5d3e 2981 92be
00000300: 68e7 383d 70f2 113d 0502 73bc 48b8 a13d
00000310: 97ec d83d 230f 803b ba07 d6bc 2750 48be
00000320: 2974 253d 49df 3cba 8415 0c3d ca50 433c
00000330: d1c0 b03d bb93 92be c10b 083d 0a14 7d3d
00000340: 5977 813c ee36 a63c 7d19 1f3d 868d 933b
00000350: 4fb5 b13d 12a4 0abe 74b2 14bc 05f4 1a3c
00000360: 8928 943d 9530 1ebd 92dd a13e b419 50bd
00000370: 1efd 443b ab13 273d c163 c43e fb63 183c
00000380: 4d36 223e 4fc4 e1bd 1709 023d 535f dbbc
00000390: e507 ad3d 7eea d5bc 8cdd 80be 383c 09be
000003a0: 36f0 1cbd 8f5a a6bc a9c0 89bd 8a8f 4fbd
000003b0: 3c54 113e aac3 06be e7e7 853d 918e c63c
000003c0: 4eab 573d b6bb 21be 28ba 21bc 1c41 a2bd
000003d0: edbc 1bbb 57dd eabd ac44 1c3e 1f5e c4bb
000003e0: 081d ab3d 96e3 36bd 9f27 683d fb96 eabd
000003f0: 2f8f be3d c662 22bd f2c2 ba3b 5f0a a4bc

fc2.bias f4 [128]
-0.0010368796 0.08670644 -0.03248784 0.074860275 -0.10991447 -0.062441304 0.03622832 0.12657982
0.052757002 0.09290695 0.004281081 -0.017296648 0.15396681 -0.052394427 0.10470222 -0.052563816
-0.05182713 -0.005900651 -0.1466866 -0.04618541 -0.024003353 -0.12802514 -0.052273903 -0.025689019
0.00077449874 -0.021971015 0.114786364 0.004357827 -0.07090968 -0.07878099 -0.14388898 0.097835116
0.16785151 -0.005016643 -0.0064796833 0.024158869 0.08996466 -0.007674316 0.019548327 -0.034296732
0.0836337 -0.025930364 -0.010734823 -0.0579384 -0.069323845 0.08357442 0.04832974 -0.033527024
0.034917198 0.10380793 -0.0043223044 -8.156779e-05 0.11580574 -0.023474723 -0.046745844 0.054283425
0.011478488 -0.00436083 0.032534167 -0.070467345 -0.10491005 -0.091431044 0.085791044 -0.012740335
-0.0017766319 -0.16267559 -0.06816334 0.006248388 -0.079920195 0.04685189 0.005773279 0.109769866
0.06335517 0.03999453 0.085860886 -0.01419452 -0.06375489 0.01221829 0.17934103 0.12589543
0.19607107 -0.008977068 0.1422897 -0.0093000885 -0.07436895 -0.013245257 -0.12661085 0.047399506
0.10533904 0.044824656 0.08370056 0.14531565 0.10975043 -0.0074500656 0.14762247 0.18271622
0.12843741 -0.048519466 -0.04895173 0.13199644 -0.01764904 0.10298724 -0.040773932 0.06778358
-0.074004054 0.00607591 -0.04073209 0.071678475 0.14158888 0.08187257 -0.07738281 0.02460601
0.007374754 0.009382448 -0.057950348 0.058446083 0.065834485 0.08822805 -0.0063637695 0.07195926
0.07329431 0.047954865 0.004334835 0.032265875 0.10587216 0.119508155 0.00093830796 0.10757924
00000000: e8e7 87ba 2593 b13d f811 05bd 5850 993d
00000010: d61a e1bd 74c2 7fbd 2664 143d 249e 013e
00000020: ba17 583d 0046 be3d 4f48 8c3b b3b1 8dbc
00000030: 7aa9 1d3e 8a9b 56bd 1e6e d63d 284d 57bd
00000040: af48 54bd 405a c1bb 0335 16be ea2c 3dbd
00000050: aea2 c4bc 0619 03be 291d 56bd c771 d2bc
00000060: bb07 4b3a 8ffc b3bc 1d15 eb3d 1acc 8e3b
00000070: 1839 91bd ed57 a1bd a257 13be c75d c83d
00000080: 44e1 2b3e a762 a4bb 8653 d4bb d2e8 c53c
00000090: 643f b83d d478 fbbb d023 a03c bb7a 0cbd
000000a0: 2548 ab3d ea6b d4bc 1ce1 2fbc d150 6dbd
000000b0: a9f9 8dbd 1129 ab3d 68f5 453d a253 09bd
000000c0: 5605 0f3d 4199 d43d 1ea2 8dbb 600f abb8
000000d0: 8f2b ed3d 104e c0bc 9278 3fbd 4c58 5e3d
000000e0: 4510 3c3c 4be5 8ebb 8c42 053d 2f51 90bd
000000f0: 15db d6bd 3340 bbbd 37b3 af3d d7bc 50bc
00000100: e0dd e8ba 6e94 26be 3999 8bbd 47bf cc3b
00000110: 33ad a3bd c4e7 3f3d c62d bd3b 06cf e03d
00000120: 5bc0 813d 4ed1 233d d5d7 af3d 2290 68bc
00000130: ec91 82bd 392f 483c 2da5 373e bbea 003e
00000140: dbc6 483e 8d14 13bc 64b4 113e 665f 18bc
00000150: c04e 98bd a202 59bc 46a6 01be fc25 423d
00000160: ffbb d73d 0f9a 373d 336b ab3d a0cd 143e
00000170: d5c4 e03d ae1f f4bb 582a 173e f619 3b3e
00000180: 1985 033e 59bc 46bd 9c81 48bd 132a 073e
00000190: b894 90bc f9ea d23d 9102 27bd 1ed2 8a3d
000001a0: 708f 97bd 6d18 c73b b1d6 26bd 2acc 923d
000001b0: adfc 103e ceac a73d e17a 9ebd 8b92 c93c
000001c0: eca7 f13b d7b8 193c 585d 6dbd 2965 6f3d
000001d0: 3bd4 863d e8b0 b43d 2b87 d0bb 605f 933d
000001e0: 541b 963d 526c 443d 3b0b 8e3b 3929 043d
000001f0: 81d3 d83d b1c0 f43d c8f8 753a 8152 dc3d

fc3.weight f4 [64, 128]
-0.07166015 -0.09389204 0.10450748 0.04485261 -0.13126738 0.09632259 0.10409916 0.122712284
-0.027208658 -0.017086541 -0.02349512 0.044997297 -0.09516607 0.10781947 0.0066516884 -0.06317955
0.04460724 0.11114714 0.01207907 -0.11347405 0.108368926 -0.033241708 -0.06858818 -0.087920934
-0.068029225 0.07152587 0.109000966 0.04910717 -0.034883495 -0.029276123 0.010127021 0.052960925
0.10021329 0.020279145 -0.0552531 0.013893359 0.12044728 0.04600568 -0.08878169 -0.0031112325
-0.008709178 -0.082763255 -0.060552124 0.08375705 0.27356306 -0.11638828 -0.06384186 -0.05869983
0.012240249 0.09670255 -0.06512658 -0.19911174 -0.10478381 0.08790843 0.029536448 0.20412524
-0.08173272 -0.050753713 -0.018355379 -0.0062027876 -0.04267426 0.018942926 -0.071127 0.0026092287
-0.05547953 -0.035085782 0.01700814 -0.093658164 -0.027691027 -0.09828078 -0.08487129 -0.06680888
-0.042089492 -0.072777756 0.06238546 0.0510604 0.06612965 -0.06584413 0.033077326 -0.03636908
-0.07906015 -0.042546555 -0.036342397 0.12151607 -0.07932569 0.022333784 0.030715557 0.020975342
0.023546921 0.032078058 0.075431064 -0.1073965 -0.12780763 -0.01286402 -0.012837561 -0.18024452
-0.016135292 -0.14855167 0.08111255 -0.07495418 -0.121752955 -0.02253053 -0.14164685 0.006164804
-0.1897376 0.14491442 0.17090815 0.075802445 -0.023692204 0.09293665 -0.03097148 -0.07307515
-0.08926164 0.031067481 0.06717628 0.024974335 -0.025988298 -0.030919192 -0.0039276765 0.008836249
0.16412775 -0.1052076 -0.017868252 -0.08666631 0.0039616222 -0.009964583 0.04907018 0.042377215
-0.038560648 0.0852988 -0.07190992 -0.032093108 -0.023495436 -0.08750553 -0.12193996 -0.03474133
-0.019569196 -0.124936126 -0.0036024936 0.03095184 0.051800195 -0.07374224 -0.06768444 -0.0857243
0.0024304688 0.04319478 -0.08748766 -0.04133473 0.008185655 -0.050134066 -0.00822065 -0.016014382
-0.04444775 -0.020686004 0.032103945 -0.011271216 -0.04042144 0.060996495 -0.008265682 -0.010253238
-0.06374492 -0.08820151 -0.018525258 0.068422504 -0.05713256 -0.0602191 -0.029159509 -0.11197428
-0.008374682 -0.0009428635 0.060746618 -0.023239337 -0.07353625 -0.054476645 -0.059512075 -0.018197931
-0.037312552 -0.101268336 -0.124095604 -0.108059116 0.02267301 -0.078775726 0.025676697 -0.0727106
-0.07079099 -0.024988636 -0.017446496 0.0109586865 -0.02944481 0.00048485398 -0.11489405 -0.103791334
-0.050383322 0.0847682 -0.06591253 -0.011303118 0.047374688 0.038666613 -0.08444461 -0.047259714
-0.056937285 -0.060504116 0.0007251831 -0.025515974 -0.06613169 0.03806368 -0.05400384 -0.042934533
-0.05298768 -0.010028139 0.022261007 -0.03388729 0.056287833 -0.07543131 -0.07623209 0.041638356
-0.075950086 0.020264827 -0.055041514 -0.027787033 -0.11041818 0.054325905 0.019900637 0.0012968378
-0.062314205 -0.085922524 0.0037341744 0.028341327 -0.001113534 -0.12574014 -0.037544847 -0.10165755
-0.023471609 -0.023716388 -0.05831556 0.008184107 0.0042539597 -0.043048263 -0.07675927 -0.038462076
-0.020696646 -0.06059253 -0.068973884 -0.02006682 -0.058103267 -0.070242 -0.032923836 0.019794578
-0.116355 0.0026018396 -0.02021695 0.034090582 -0.10138334 0.0050399206 0.055375777 -0.06623637
00000000: 8fc2 92bd 784a c0bd 0508 d63d 5fb7 373d
00000010: f56a 06be c744 c53d f131 d53d 9450 fb3d
00000020: b1e4 debc 13f9 8bbc d778 c0bc 164f 383d
00000030: 6ee6 c2bd 74d0 dc3d 68f6 d93b 4864 81bd
00000040: 15b6 363d 1da1 e33d 4be7 453c 1565 e8bd
00000050: 87f0 dd3d 7528 08bd f677 8cbd e40f b4bd
00000060: e852 8bbd 287c 923d e63b df3d 9a24 493d
00000070: ffe1 0ebd 7bd4 efbc ceeb 253c 8eed 583d
00000080: a03c cd3d 7320 a63c 1351 62bd f9a0 633c
00000090: 10ad f63d 7470 3c3d 2dd3 b5bd d2e5 4bbb
000000a0: f1b0 0ebc c87f a9bd 8105 78bd d188 ab3d
000000b0: 7510 8c3e fb5c eebd 85bf 82bd 3c6f 70bd
000000c0: 538b 483c fd0b c63d 1661 85bd f3e3 4bbe
000000d0: e598 d6bd 5609 b43d 6cf6 f13c 3506 513e
000000e0: 7c63 a7bd 20e3 4fbd 055e 96bc c140 cbbb
000000f0: 34cb 2ebd 322e 9b3c 08ab 91bd 98ff 2a3b
00000100: 813e 63bd 1cb6 0fbd a854 8b3c dacf bfbd
00000110: 4bd8 e2bc 6f47 c9bd 00d1 adbd 18d3 88bd
00000120: 0866 2cbd 810c 95bd e587 7f3d b624 513d
00000130: fb6e 873d 4ad9 86bd 177c 073d bff7 14bd
00000140: 4aea a1bd 4c45 2ebd c4db 14bd 6bdd f83d
00000150: 8275 a2bd 57f5 b63c 319f fb3c 7bd4 ab3c
00000160: 79e5 c03c 4864 033d 9a7b 9a3d b2f2 dbbd
00000170: 01e0 02be 9cc3 52bc a254 52bc 0592 38be
00000180: 292e 84bc ee1d 18be 561e a63d 9481 99bd
00000190: 9d59 f9bd f291 b8bc df0b 11be 2002 ca3b
000001a0: 934a 42be 7264 143e 8c02 2f3e 503e 9b3d
000001b0: 2716 c2bc 9255 be3d e7b7 fdbc 6da8 95bd
000001c0: cfce b6bd 3b81 fe3c b893 893d fa96 cc3c
000001d0: 69e5 d4bc 3f4a fdbc bdb3 80bb eac5 103c
000001e0: 1b11 283e 1577 d7bd 7160 92bc 1b7e b1bd
000001f0: 7fd0 813b 7e42 23bc d0fd 483d bb93 2d3d
00000200: c5f1 1dbd 23b1 ae3d 8245 93bd 1074 03bd
00000210: 8079 c0bc 1936 b3bd a8bb f9bd ed4c 0ebd
00000220: 944f a0bc 83de ffbd d017 6cbb b78e fd3c
00000230: 712c 543d 2c06 97bd 249e 8abd 3990 afbd
00000240: 8048 1f3b 02ed 303d bb2c b3bd 9b4e 29bd
00000250: 201d 063c 6159 4dbd e8af 06bc 9830 83bc
00000260: d80e 36bd b275 a9bc 6d7f 033d e8aa 38bc
00000270: f490 25bd 76d7 793d c86c 07bc 32fd 27bc
00000280: b28c 82bd fea2 b4bd 48c2 97bc 1921 8c3d
00000290: d503 6abd 4ea8 76bd ecdf eebc c552 e5bd
000002a0: f635 09bc 802a 77ba 72d1 783d 6c60 bebc
000002b0: 2c9a 96bd e722 5fbd efc2 73bd d413 95bc
000002c0: 0cd5 18bd c665 cfbd d625 febd 194e ddbd
000002d0: c0bc b93c 2b55 a1bd f057 d23c 4ce9 94bd
000002e0: defa 90bd f8b4 ccbc f4eb 8ebc 108c 333c
000002f0: 3e36 f1bc 0034 fe39 924d ebbd 8d90 d4bd
00000300: be5e 4ebd f39a ad3d 26fd 86bd b730 39bc
00000310: f60b 423d e260 1e3d 4cf1 acbd 6793 41bd
00000320: 1237 69bd 2ad3 77bd 371a 3e3a e006 d1bc
00000330: 0d70 87bd a9e8 1b3d 2133 5dbd 1fdc 2fbd
00000340: 9c09 59bd 104d 24bc b75c b63c 66cd 0abd
00000350: 128e 663d bb7b 9abd 921f 9cbd fb8c 2a3d
00000360: b88b 9bbd 6c02 a63c 3673 61bd a2a1 e3bc
00000370: ed22 e2bd d784 5e3d a906 a33c a8fa a93a
00000380: 2e3d 7fbd 26f8 afbd 0db9 743b 122c e83c
00000390: 00f4 91ba 06c2 00be a0c8 19bd d531 d0bd
000003a0: 8847 c0bc df48 c2bc 4cdc 6ebd a216 063c
000003b0: cd64 8b3b 6053 30bd f733 9dbd 698a 1dbd
000003c0: 038c a9bc df2f 78bd 2e42 8dbd 2c63 a4bc
000003d0: b1fd 6dbd 0adb 8fbd 25db 06bd 3d28 a23c
000003e0: 884b eebd a083 2a3b 049e a5bc 91a2 0b3d
000003f0: 12a2 cfbd eb25 a53b b6d1 623d efa6 87bd

fc3.bias f4 [64]
0.11548466 -0.05098892 0.1640981 -0.1318799 0.03431673 -0.085262485 -0.05236927 0.017965943
-0.074138835 0.1265383 0.07390208 0.10431285 -0.15235981 0.19258069 0.12982586 -0.1224998
-0.1971928 0.047289565 0.013991205 -0.15178433 0.15312946 0.06762423 0.14082348 0.17609066
-0.099908195 0.013016604 0.06830867 0.05791158 0.06805147 0.031791538 0.17021352 -0.068390094
-0.031448733 0.019049946 0.021762095 0.17127784 0.16810966 0.14626698 0.0070774406 0.14809678
0.17629863 0.059009198 0.068258725 0.12652704 0.04771283 -0.10981281 0.08777793 0.1161818
0.014814099 0.08830872 0.21065941 -0.038697194 0.0051579326 -0.02508383 0.31820086 0.10294232
0.09559834 0.09999392 -0.03435251 0.040952522 0.006179333 -0.02514345 0.033427887 0.14161333
00000000: 3983 ec3d c2d9 50bd 5509 283e 860b 07be
00000010: b38f 0c3d 199e aebd 2981 56bd 502d 933c
00000020: 1ad6 97bd 4293 013e f959 973d faa1 d53d
00000030: 3604 1cbe df33 453e 12f1 043e 2de1 fabd
00000040: e9ec 49be b4b2 413d 5e3b 653c 5a6d 1bbe
00000050: f8cd 1c3e 937e 8a3d 0834 103e 1c51 343e
00000060: ab9c ccbd 9843 553c 6ae5 8b3d b134 6d3d
00000070: 925e 8b3d d837 023d 744c 2e3e 1b10 8cbd
00000080: 63d0 00bd a20e 9c3c 6c46 b23c 7563 2f3e
00000090: f024 2c3e 03c7 153e e0e9 e73b afa6 173e
000000a0: a187 343e a1b3 713d 3bcb 8b3d 4e90 013e
000000b0: 876e 433d 8ae5 e0bd eac4 b33d b9f0 ed3d
000000c0: d6b6 723c 34db b43d 1ab7 573e f380 1ebd
000000d0: e003 a93b 9b7c cdbc 39eb a23e 6cd3 d23d
000000e0: 10c9 c33d 9dc9 cc3d 38b5 0cbd d5bd 273d
000000f0: 017c ca3b a3f9 cdbc aeeb 083d 1603 113e

fc4.weight f4 [10, 64]
-0.057175275 0.003464721 -0.1755357 0.01799357 0.10850645 -0.07213256 -0.07827305 0.06532346
0.14113878 0.12544318 0.08436079 -0.14463837 -0.037782483 0.03688201 -0.09831482 0.029018542
-0.025707133 0.065289594 0.0023766195 0.12350268 0.043667376 0.10490267 -0.1774145 0.024044864
-0.1487993 0.04479658 0.13353653 0.12750211 -0.17789032 -0.094526984 0.1275097 -0.12513962
0.13018525 0.01806016 -0.023316955 -0.12074999 -0.10476086 -0.08198199 -0.06235608 0.038247325
-0.1275275 -0.012204698 -0.04067434 0.043483917 -0.05318934 -0.15319479 -0.24068004 -0.03050406
-0.13021886 0.072055295 -0.19475555 0.097363174 0.11641881 -0.035683952 -0.04833564 -0.15010107
-0.17159653 0.01198057 -0.007882591 -0.023657795 -0.06264785 -0.5864171 0.035400998 -0.11854209
0.13103741 -0.117115736 -0.2732107 -0.1953385 -0.076435655 -0.29148406 -0.09549841 0.07857646
-0.118350245 -0.022907067 -0.22176272 -0.05919733 0.18274693 -0.06550397 0.076738834 -0.09383473
-0.07202081 0.24520288 0.12451291 0.06959364 0.09852774 -0.2038352 0.08994312 0.0530052
0.17476586 -0.13729756 -0.35244703 -0.16554964 -0.18916814 0.16241427 -0.055022348 0.15907316
0.19402805 -0.07578239 0.025169047 -0.054469254 0.083029 0.0010941897 -0.056391213 -0.323528
-0.13950185 -0.21987355 -0.024880368 0.19089064 0.06931568 -0.14056742 -0.25705746 -0.13122034
-0.20163763 -0.16063452 -0.25286654 -0.18982743 0.15144937 -0.04330268 -0.33784637 -0.10569582
-0.043432087 0.118342675 -0.061762176 -0.036556527 -0.053208977 -0.5177712 0.1287701 -0.23437078
-0.08025503 0.05544319 0.08397688 -0.13104893 0.14489937 -0.0886942 -0.11712053 -0.0359467
-0.13695392 0.03828149 0.08146512 0.08668123 -0.21043782 0.011624809 -0.10045118 -0.08357034
-0.0029128555 -0.05796242 0.029286165 -0.08203958 0.17287883 0.15532756 -0.06305907 0.06605857
-0.27967435 0.13685825 0.05613061 -0.09385706 -0.15581502 -0.027966805 -0.05979653 0.030890316
-0.081020534 -0.30007756 -0.322875 0.04282125 0.009589992 0.0862393 -0.24148378 0.0432078
-0.14060347 -0.24046157 -0.11447208 0.06650272 -0.02283452 0.06178169 -0.009663191 0.116544634
-0.17131275 -0.11288658 0.048394106 -0.023582116 -0.21097328 -0.032208417 0.04698063 -0.018932024
0.035897218 0.028967038 -0.035179663 0.0075622583 0.07980471 -0.18023078 0.023119044 -0.019401837
0.027794017 0.052890122 -0.4359264 -0.09540762 0.08793968 -0.10810122 -0.38992524 0.10339489
0.057388898 0.11571374 -0.19941863 0.08105547 -0.078269295 0.12249569 0.12318013 -0.09852964
-0.11793659 -0.10348376 -0.1916468 -0.039671794 0.012656536 -0.10087868 0.096749455 -0.27092335
-0.07956808 -0.013693656 0.007968423 -0.040063795 -0.013232337 -0.0730304 0.08451109 -0.00075665076
0.06815562 -0.11902263 -0.017195752 0.103399836 0.011107083 -0.09047799 -0.24412464 -0.0008755789
0.11608295 -0.21409808 0.12583603 -0.0035252091 0.078319594 0.020720515 0.033213325 0.075332515
-0.2697807 -0.15280797 -0.3306011 -0.010088474 0.07060217 -0.11339039 0.12861991 -0.03562015
-0.08860428 -0.048539802 -0.101166785 -0.08583059 -0.115698434 -0.43229762 0.11575595 0.023417868
00000000: 9f30 6abd 5f10 633b a1bf 33be 4067 933c
00000010: a138 de3d 3cba 93bd 9f4d a0bd 4ec8 853d
00000020: af86 103e 2d74 003e 5ac5 ac3d 151c 14be
00000030: cec1 1abd 9711 173d 4859 c9bd 4bb8 ed3c
00000040: c497 d2bc 8db6 853d 0fc1 1b3b f9ee fc3d
00000050: 90dc 323d 36d7 d63d 26ac 35be bcf9 c43c
00000060: d85e 18be 9e7c 373d cdbd 083e ea8f 023e
00000070: e128 36be 5d97 c1bd e791 023e 9a24 00be
00000080: 484f 053e e7f2 933c 3303 bfbc c54b f7bd
00000090: dd8c d6bd 2ce6 a7bd 1769 7fbd 3aa9 1c3d
000000a0: 9296 02be 37f6 47bc 239a 26bd 311c 323d
000000b0: 11dd 59bd 18df 1cbe d474 76be a7e3 f9bc
000000c0: 1858 05be ba91 933d 006e 47be 5866 c73d
000000d0: fc6c ee3d 5629 12bd 98fb 45bd 18b4 19be
000000e0: 00b7 2fbe 274a 443c fc25 01bc fecd c1bc
000000f0: 844d 80bd 6e1f 16bf a300 113d 32c6 f2bd
00000100: ac2e 063e 60da efbd 46e2 8bbe d106 48be
00000110: 4c8a 9cbd 663d 95be ac94 c3bd b2ec a03d
00000120: 9d61 f2bd 9aa7 bbbc c415 63be e678 72bd
00000130: 0322 3b3e f226 86bd 4029 9d3d 6c2c c0bd
00000140: a57f 93bd 7716 7b3e a000 ff3d 1c87 8e3d
00000150: e9c8 c93d 2dba 50be 1934 b83d fb1b 593d
00000160: d2f5 323e bb97 0cbe f073 b4be d885 29be
00000170: 4bb5 41be ed4f 263e 1d5f 61bd 13e4 223e
00000180: 4aaf 463e cc33 9bbd 512f ce3c 271b 5fbd
00000190: 1c0b aa3d ea6a 8f3a 79fa 66bd 76a5 a5be
000001a0: 93d9 0ebe 8826 61be ead1 cbbc d678 433e
000001b0: 61f5 8d3d e8f0 0fbe 099d 83be a05e 06be
000001c0: 187a 4ebe 607d 24be b977 81be 1f62 42be
000001d0: 8b15 1b3e 275e 31bd 33fa acbe 0d77 d8bd
000001e0: d8e5 31bd a55d f23d 56fa 7cbd 4cbc 15bd
000001f0: a8f1 59bd a78c 04bf 4fdc 033e e5fe 6fbe
00000200: c05c a4bd 6618 633d 12fc ab3d b131 06be
00000210: 8060 143e 4ea5 b5bd e3dc efbd d93c 13bd
00000220: a63d 0cbe 0dcd 1c3d 2fd7 a63d ee85 b13d
00000230: 037d 57be fc75 3e3c 59b9 cdbd ed26 abbd
00000240: 9be5 3ebb 016a 6dbd 8ae9 ef3c 5e04 a8bd
00000250: 2607 313e 300e 1f3e 1d25 81bd b749 873d
00000260: 7a31 8fbe 9224 0c3e 36e9 653d 2138 c0bd
00000270: f98d 1fbe a41a e5bc 35ed 74bd b00d fd3c
00000280: 18ee a5bd c4a3 99be df4f a5be 5665 2f3d
00000290: 581f 1d3c 3b9e b03d 8647 77be a9fa 303d
000002a0: 5bfa 0fbe 8f3b 76be 5670 eabd 9432 883d
000002b0: 760f bbbc cc0e 7d3d 5c52 1ebc f4ae ee3d
000002c0: 9c6c 2fbe 1431 e7bd e638 463d 482f c1bc
000002d0: 6109 58be f9ec 03bd c36e 403d 5517 9bbc
000002e0: f608 133d 484c ed3c 8d18 10bd d2cc f73b
000002f0: a770 a33d 6b8e 38be 2664 bd3c 9af0 9ebc
00000300: 47b0 e33c 50a3 583d bf31 dfbe 1265 c3bd
00000310: b819 b43d 2c64 ddbd 48a4 c7be b3c0 d33d
00000320: 9f10 6b3d 53fb ec3d 6634 4cbe 6900 a63d
00000330: a74b a0bd 05df fa3d dd45 fc3d e8c9 c9bd
00000340: bd88 f1bd 4bef d3bd 0f3f 44be e47e 22bd
00000350: 5c5d 4f3c 7b99 cebd 9424 c63d 77b6 8abe
00000360: 97f4 a2bd 5b5b 60bc fd8d 023c ef19 24bd
00000370: 72cc 58bc f690 95bd 2614 ad3d f959 46ba
00000380: 2c95 8b3d 23c2 f3bd 1bde 8cbc 4bc3 d33d
00000390: 7cfa 353c 864c b9bd cffb 79be 1b87 65ba
000003a0: e6bc ed3d 873c 5bbe 29db 003e 3207 67bb
000003b0: 0666 a03d 12be a93c b20a 083d ef47 9a3d
000003c0: b220 8abe b179 1cbe 8c44 a9be 204a 25bc
000003d0: df97 903d 3939 e8bd f0b4 033e 6fe6 11bd
000003e0: 2976 b5bd acd1 46bd 8830 cfbd f3c7 afbd
000003f0: 4df3 ecbd 1d56 ddbe 7511 ed3d d4d6 bf3c

fc4.bias f4 [10]
-0.12435118 -0.16092017 0.12183653 -0.034890514 -0.12401818 -0.09065237 0.07168554 0.107992224
0.08463814 0.014889059
00000000: d5ab febd 42c8 24be 6e85 f93d 5be9 0ebd
00000010: 3efd fdbd f3a7 b9bd decf 923d 072b dd3d
00000020: c356 ad3d 3df1 733c
